models/attention_based/helpers/train_stam/checkpoint/encoder.pth (torch, 799871 bytes, 8 tensors)

temporal_emb_converter.weight_ih_l0 f4 [512, 1]
00000000: f77a b23a d7d6 4b3d 249b 8ebd 0917 85bd
00000010: aa75 f4bc 5b52 b23c 0bbc 8ab9 c9cf 963d
00000020: 4fcd 08bc 06a7 a63c eb1b 16bd 0886 85bc
00000030: 3a43 b1bd 5085 88bd f46f 08bd afc1 c93b
00000040: 5bcf 073d d54f 493d 5849 7dbd b10d 28bd
00000050: 2bca 0a3d 62bc 933d 2d83 6abc 3729 853d
00000060: ad81 abbc 5a31 acba 0967 ac3d 77b0 aabd
00000070: 3974 71bd a9c4 d0bc 65e4 1abd bf90 9e3d
00000080: d7ca 55bd ef91 31bd 2029 65bd a13b aabd
00000090: 8878 65bd 2187 ac3d ab82 283d 6056 2e3d
000000a0: 3203 483b ddf4 2cbd 3c19 893c 5579 a1bd
000000b0: 96e6 6fbd 8ecf 30bd 61cb 533d e948 6a3d
000000c0: 4121 2ebd 33d8 6fba 75a6 773d 6750 c33d
000000d0: 0046 183d f021 153c 7e74 7d3d 7cd8 46bd
000000e0: 5710 a63c a612 86bd e802 6bbd 8cbe 62bd
000000f0: 9178 0d3d b528 ca3c 36a4 69bd 0a2e 173d
00000100: 4f00 663d 445a 1abc f1f1 86b8 bdaf 4d3c
00000110: 8364 6c3d 25b0 c03d 3cb7 86bd 65b7 efbc
00000120: b35b 173d da6e 9b3d 6829 a23d b781 993d
00000130: 1858 b93c 15c5 9dbd 6cbb ee3b 897a 74bd
00000140: 0e23 a5bd 319b a33d 942d 893d d0da afbd
00000150: da09 673c 6c4a 87bc 975a 3abc 2fcc 19bd
00000160: afc6 313d 595c 62bd dd04 fd3c 4971 293d
00000170: ee32 843d 9af0 dd3c 151c b8bd 60e1 74bd
00000180: 1b7d 393d a1d1 843c 1c5b 91bd 911c 49bd
00000190: 95eb b03d 4da4 663d ffa7 14bd 2d96 bbbc
000001a0: b5c5 afbd 7a94 853b 01a2 84bd f38c 85bd
000001b0: aa20 efbb 1fe1 1d3c a965 0fbd 2d13 5c3d
000001c0: f16f 64bd 2e67 ab3d 7f20 843d 062a 91bd
000001d0: e710 b0bc 1097 e93a 8367 813c 3a66 fc3c
000001e0: 9642 0a3d 45b3 1c3c 125b 3cbd b5e1 1f3d
000001f0: 1c70 a2bd f897 57bd 6558 9cbc 7d35 43bd
00000200: 2513 dabc e7e2 8fbd b37b d7bc 34c7 373c
00000210: 0fc9 5cbd f8e1 eabb 852e 843d 0f66 daba
00000220: 8fa8 4dbb c0b5 0abc 0864 8c3c 20c7 7c3d
00000230: a927 a63d 18f5 763d c47f bb3d 40cb 9a3a
00000240: 798b 93bd 46e6 21bd 49b9 853d 2e2f d9bb
00000250: 6150 14bd e5ab 98bd 00f5 a0bd 3e92 93bd
00000260: c58c babc 8b68 5e3d ef7b 273d bd41 bcbd
00000270: 9372 6d3d 8fd2 92bd 7c06 d4bc a2e0 23bd
00000280: ec94 6bbc 97e5 d2bb b5dc 8fbd 24e6 acbd
00000290: fdc2 8bbc 8bb3 253c 1c88 3abd 2d15 f43c
000002a0: e461 a8bd fbd3 8ebb ed5b a13d 281b 09bd
000002b0: 7470 973d 375f 0c3d 4394 a5bd 8cef 6f3d
000002c0: ee96 5ebc 4ccc 08bd 0e7b 8e3d 6327 9fbd
000002d0: b7f2 8b3c ebf0 c6bc 9b90 813d 697b d83c
000002e0: 912e 2f3d 442d ca3c 23bf 90bc 6fbd 5fbc
000002f0: 4fba 8fbd 0967 083d b332 9a3d 472e 8d3d
00000300: 21f5 61bd c490 4b3c 25d1 8bbd 4a50 5cbd
00000310: 7cc8 4dbd b69f b53c 1abb 3bbd d10b 2939
00000320: 3839 cb3b 4d55 6a3d e7e6 81bd f3a3 87bd
00000330: a89e 35bd 6e63 813d e048 bbbc bea9 863d
00000340: e951 da3c 0a91 933b bcdb f2bb a3b2 6dbc
00000350: 429a f13b ff1a dbbc 3caa 96ba 9e74 463c
00000360: 0186 7ebd 0980 44bd e8fb 9b3d d63b 87bd
00000370: d7d6 21bc 99a1 a83d 836e e03c e44d 0c3c
00000380: 66da 8cbd 3ba5 413d d446 85bd 0747 d7bc
00000390: b767 0cbd e732 97bc aa98 92ba ab25 933d
000003a0: 82e9 223c 56be b33d 2b19 463d 210f 46bd
000003b0: c824 1a3d 8160 8bbd f046 14bd 72a3 f83c
000003c0: 4f8d e13c babe 823d 5dbc 13bd 2a46 73bb
000003d0: 9c36 513d dc53 b5bd 7799 923d 05ee 84bd
000003e0: f90c 7fbb 80ee a8bc 2f76 4dbd 52f1 183c
000003f0: 15cc a53d 729a 96bc 5add 46bd b559 13bd
0.0013616969 0.049765434 -0.069631845 -0.06498534 -0.029841263 0.021767786 -0.00026461514 0.073638506
-0.008349731 0.020343315 -0.03664772 -0.016299263 -0.086554006 -0.06666052 -0.03330989 0.006157122
0.033156734 0.0491484 -0.061837524 -0.041028682 0.03388421 0.072136655 -0.014313501 0.06502002
-0.020935858 -0.0013137267 0.0841809 -0.08334439 -0.05894873 -0.0254844 -0.03781547 0.07742452
-0.052195396 -0.043352064 -0.055947423 -0.083121546 -0.05602315 0.08424211 0.04114024 0.042562842
0.0030519483 -0.042225707 0.016735666 -0.078844704 -0.058569513 -0.04316669 0.05170763 0.05719844
-0.042512182 -0.00091493427 0.06046148 0.0953682 0.037176132 0.00910233 0.061878674 -0.0485463
0.020271463 -0.06546526 -0.05737582 -0.0553575 0.03453881 0.024677614 -0.05704137 0.03690914
0.056152638 -0.009420935 -6.434683e-05 0.012554106 0.057713043 0.09408597 -0.06577918 -0.029262254
0.036952686 0.07589503 0.07918054 0.07495444 0.022625014 -0.07703606 0.007285526 -0.05968717
-0.08063327 0.07988585 0.066981465 -0.08586657 0.01410147 -0.01651498 -0.011374137 -0.03754824
0.04340237 -0.05526385 0.030886108 0.041367803 0.064550266 0.027092267 -0.08989731 -0.059785247
0.045285325 0.01621324 -0.07097456 -0.04909951 0.08638684 0.056309033 -0.036293026 -0.022898758
-0.085826315 0.0040765377 -0.06476212 -0.065210246 -0.007297595 0.009636193 -0.03500906 0.053729225
-0.05577082 0.08369289 0.06451511 -0.070880935 -0.021492435 0.0017821509 0.015796429 0.030810464
0.033754908 0.009564226 -0.04598529 0.03903361 -0.079315394 -0.052635163 -0.019085119 -0.047658432
-0.026620457 -0.070257 -0.026304102 0.011216927 -0.053902682 -0.007168051 0.064541854 -0.0016662496
-0.0031380986 -0.008466184 0.017137542 0.061713338 0.08113033 0.060292333 0.09155229 0.0011809841
-0.07204337 -0.039526246 0.06529481 -0.0066279387 -0.036209468 -0.07454661 -0.0785923 -0.07205628
-0.022772202 0.05429892 0.040889677 -0.09192226 0.057970595 -0.07169067 -0.025881998 -0.04000915
-0.014378767 -0.0064360606 -0.070245184 -0.08442333 -0.017060751 0.010113607 -0.04553996 0.029795254
-0.08221796 -0.004358766 0.078788616 -0.033473164 0.073944956 0.03427049 -0.08084919 0.05857806
-0.013585789 -0.033397958 0.069570646 -0.07771184 0.017083509 -0.0242848 0.063264094 0.026426034
0.04276902 0.024679787 -0.017669266 -0.013656004 -0.070179574 0.033301387 0.07529201 0.06893592
-0.055165414 0.0124246515 -0.068270005 -0.053787507 -0.050240025 0.022170883 -0.04583273 0.00016121498
0.0062018894 0.057210255 -0.06342869 -0.06623068 -0.04434076 0.06317793 -0.022861898 0.065753445
0.026650386 0.004503374 -0.0074114483 -0.014507922 0.0073731253 -0.026746271 -0.0011494826 0.012112765
-0.062139515 -0.047973666 0.07616407 -0.0660321 -0.009877882 0.08233947 0.027396446 0.008563492
-0.06877594 0.047276717 -0.0650765 -0.026278986 -0.034278598 -0.01845689 -0.0011184413 0.07184919
0.009943368 0.08776538 0.048363846 -0.04835427 0.037632734 -0.06805516 -0.036200464 0.030351374
0.027533202 0.063840345 -0.03606831 -0.0037120678 0.05107747 -0.088538855 0.07158177 -0.06490711
-0.0038917644 -0.020621538 -0.050161537 0.009334879 0.08095566 -0.018384192 -0.04855094 -0.035974223

temporal_emb_converter.weight_hh_l0 f4 [512, 128]
00000000: fd63 d4bc 9a7a 0fbd 9fb9 af3c c07b 033d
00000010: 5636 29bd ba6a 0e3c 2520 573d 9529 38bc
00000020: 77cb d23c ccd1 c5bc 55ed ef3c 7537 80bd
00000030: 7689 54bd a40b 36bd 05cf a23d c99c abbc
00000040: 17a9 c5ba 4418 35bd 8c82 af3d 7553 ae3d
00000050: b30d 86bd b78b 95bd afdf 83bd eb99 893b
00000060: 5a18 cdbc bb84 82bd 6226 fdbc 158e c83c
00000070: b32a 35bd 9df7 b13c c952 bfbc ee37 2ebd
00000080: b3c8 353c 8a78 933d b4f8 6dbd c6ec 163b
00000090: 6d85 eebc 790c af3d 235f b4bd a0f3 afbd
000000a0: d938 bd3d ccba 5dbd 2174 5d3c 9ab9 bdbb
000000b0: 0c8f 8bbc 827e c8bc 8a56 5b3d 75d4 bf3a
000000c0: e568 abbd 25c8 4ebd 501e 04bd 1dba 403d
000000d0: ab34 74bd 6ed7 a93d b446 8dbc 4ca3 5cbc
000000e0: 2c53 893d 4fcd 343d 0b99 943d e3c4 523d
000000f0: c851 f3bc 23e0 75bd 2383 1f3b 7e74 953d
00000100: 9dcc f8bc 7eae acbd d902 0b3d 56bd ab3d
00000110: d9b3 debc 3234 98bd 73df a2bd 830e c03c
00000120: 1eab c0bb 2a30 29bd d827 b33c 033d d23c
00000130: 3f81 883d 70ca 8a3d a9b6 48bc ca29 9bbd
00000140: ef6e bbbd dd39 ac3d 5c75 123d 6459 203d
00000150: ac0b a1bd 3f5f 9a3d 0b78 a73d 04ed 9c3d
00000160: f66e 9fbd 250c ffbc afc7 71bd 4f47 ae3d
00000170: 1867 22bd d772 1fbd b1c5 323d a8b9 08bd
00000180: 59bd 3abd 5944 10bc 69bd 6a39 a0c4 8abd
00000190: 5549 b03d cddd 1abd a322 1a3d 95e9 9e3d
000001a0: d555 353d f16f 693c e350 a73d e5ac 1a3c
000001b0: 6fbb 00bd 2f1b b33d 2505 b13c 4217 adbd
000001c0: e293 dabc 4f73 6dbd 9b22 a33d 54cf 85bc
000001d0: 56d4 a6bd d888 6ebc d69a 6e3d 7053 a03c
000001e0: f47d f13c 0962 013c 6e25 1a3d 22eb 9cbc
000001f0: 66ac 16bd fa96 aebd b36f 86bd c31b 253d
00000200: e9d9 49bd 4bf3 853c edab f63c 36ed 623b
00000210: 070c 7abd 4372 b13d 0eda 5ebd 3c24 9d3d
00000220: 7f7b 89bd ffac 8abc 8565 533d 5019 20bd
00000230: 020c 9d3d 2835 81bd cc33 94bd 8759 37bd
00000240: 90a5 833c 63c1 ac3d a69b 1abd 64a6 0b3d
00000250: 8d5d a1bc 06f4 85bc 54ac 783d d9a2 8fbd
00000260: 4a47 5e3c dd25 b63d 3b5a 92bc c222 893d
00000270: 155f febc e6aa 893d 074b a5bd bd83 73bc
00000280: b1fc 52bc 7556 fe3c 8f0a fd3c 55b2 923d
00000290: ad90 96bc 5fd5 32ba 6dd2 863d 41ac acbc
000002a0: 9fe3 9e3d 1e19 80bd 074c 203a dcbf 08bc
000002b0: 5a66 0d3d e6ad 853d 4a11 22bc 2ddb 8cbd
000002c0: d2c1 223d 29e8 a33c 8878 203d 2d64 55bd
000002d0: c257 793d 3ae1 af3d 7d0b 613b 9d0c b1bd
000002e0: 3784 873d ff73 82bd d570 ca3c a8b0 753c
000002f0: 638b 17bd c677 0b3d 6a3e b6bd 125f b93c
00000300: 0504 5abd 0ebb b1bb ef23 7c3c d2f2 a13d
00000310: a387 1dbd 635a 763d e70e f5bb 8d78 37bd
00000320: f482 a0bd 5e64 b1bd f341 a43d 1842 4cbc
00000330: f6c6 2d3c f4fd da3c 1b58 693d 26c6 923d
00000340: 387e ac3d 6939 8cbd 8b87 aebb 7862 52bd
00000350: 9dbc 3fbd 74df e33c 4e6a b13d e1dc 87bd
00000360: d3de 503d 9935 4abd 1056 a9bc 4ece 893d
00000370: 8b4c 8bbc b3a9 9d3b 4af5 6bbd 01f0 843d
00000380: 0fed f8bb 3e11 7cbd a032 723c 4639 86bd
00000390: 5dec a5bd 9c29 353b a720 823d dd9e e1bc
000003a0: 293d 203d ac92 923d c374 463d bb89 2abd
000003b0: bf76 74bc 3007 05bd 60da 90bd 3954 a2bb
000003c0: ec57 843d 377a 903d f040 893b 6898 c03c
000003d0: 470d 15bd 5930 8c3d 278c 31bd e012 84bd
000003e0: cfcc 2c3c 9ddc 703d d269 afbd 0328 9b3d
000003f0: ea1d 113d c30b 6cbd ca84 b0bc 9fdb 953d
-0.025926584 -0.03502903 0.021450816 0.03210044 -0.041311584 0.008692438 0.05252089 -0.011240383
0.025731785 -0.02414789 0.029287973 -0.062605776 -0.051888905 -0.044444695 0.07949642 -0.020948784
-0.00150803 -0.044212595 0.08569822 0.08512012 -0.06545582 -0.07302039 -0.06439149 0.0041992567
-0.025036026 -0.063729726 -0.030902091 0.024481812 -0.044230174 0.021724517 -0.023354905 -0.042533807
0.011095214 0.072007254 -0.05809851 0.0023029312 -0.029116357 0.08547301 -0.088072084 -0.0859139
0.092393585 -0.05413322 0.013516457 -0.0057899477 -0.017035984 -0.024474386 0.053549327 0.0014635461
-0.083696164 -0.05048384 -0.03225547 0.04705249 -0.05962054 0.08293043 -0.017245628 -0.013466667
0.06705317 0.04414111 0.07255753 0.051457297 -0.029702082 -0.060028207 0.0024339638 0.0729761
-0.030371005 -0.08431719 0.033938263 0.08385722 -0.027185367 -0.074318305 -0.07952776 0.02344442
-0.0058797738 -0.0413057 0.021869585 0.025663858 0.06665277 0.06776893 -0.012250581 -0.0757633
-0.09152018 0.08409474 0.035756454 0.03914775 -0.07863554 0.07537698 0.08177193 0.07662395
-0.07784836 -0.03113372 -0.059028324 0.08509695 -0.0396491 -0.03892788 0.043645564 -0.03338018
-0.045590732 -0.008805358 0.0002238654 -0.067757845 0.08607737 -0.037809182 0.03763069 0.07759396
0.04427131 0.01424788 0.08169725 0.009440635 -0.03142875 0.08745419 0.021608898 -0.08451702
-0.026681844 -0.057971295 0.07965585 -0.016334213 -0.081459686 -0.014558993 0.05825313 0.019571036
0.029479004 0.007896909 0.037633352 -0.019155089 -0.036785506 -0.0852489 -0.06564274 0.04030968
-0.04928008 0.016351363 0.030111277 0.0034626252 -0.061046626 0.08664372 -0.054407172 0.07672927
-0.06713008 -0.016928194 0.05161049 -0.03908664 0.07668306 -0.06308967 -0.07236442 -0.044763114
0.016070157 0.08435323 -0.037746094 0.03409423 -0.019697929 -0.016351711 0.06071122 -0.070134826
0.013566801 0.088939406 -0.01786529 0.06696083 -0.031051198 0.067220494 -0.08070951 -0.014862952
-0.012877629 0.031047085 0.030888824 0.071629204 -0.018379534 -0.0006821956 0.06583104 -0.02107823
0.07758259 -0.06254791 0.00061148446 -0.008346524 0.03452144 0.06527309 -0.009891817 -0.06877742
0.039735623 0.020008164 0.039177448 -0.05209749 0.060874708 0.085878804 0.0034339123 -0.08644984
0.06617015 -0.06369781 0.024712006 0.014995731 -0.036998164 0.03404977 -0.08898623 0.02262834
-0.05322649 -0.00542391 0.015389427 0.079076424 -0.03845943 0.060144793 -0.007478583 -0.0447927
-0.07837477 -0.08661722 0.08020391 -0.01246693 0.010606518 0.026732422 0.05696879 0.071667
0.08422512 -0.068468876 -0.0053262166 -0.05136344 -0.046810735 0.027816512 0.08662854 -0.06633926
0.05099375 -0.04936752 -0.02067092 0.067288026 -0.017004272 0.0048114895 -0.057606973 0.064910896
-0.007596619 -0.06153988 0.014782578 -0.06553893 -0.08101723 0.002764321 0.06353884 -0.027541572
0.039120827 0.07156882 0.048451196 -0.041635256 -0.014920889 -0.032477558 -0.07072902 -0.004953888
0.06462082 0.07054561 0.0041886494 0.023510173 -0.036389615 0.06845159 -0.04334655 -0.064489126
0.010546877 0.058804143 -0.085651055 0.07575991 0.03542892 -0.057628404 -0.021547694 0.0731728

temporal_emb_converter.bias_ih_l0 f4 [512]
00000000: b53e 453d d8fb 863d 298c 343d eccb a03d
00000010: 79dd 90bd 2fe4 4f3d 54b1 a13d b64f c13c
00000020: 7e5a 37bd 3b3a 0abc feca 73bd 7722 85bd
00000030: dac1 85bd 278b 4fbd c40e a33d 784e 87bd
00000040: 8420 38bd f785 d7bc f372 1c3d c352 8dbc
00000050: 21eb 333c 053c 93bc f1ac b1bd 76b2 bebd
00000060: 9155 473d 3707 d53c 8a6b 53bd dbf2 933c
00000070: 4f2d 9ebd 4dfa a83d 1ad5 493d 8a6c 5c3d
00000080: 5ff3 16bc 1bab 58bc 1e0d 3d3c 6e41 873d
00000090: 0a2d 74bd c9bc 5fbc b140 94bd 7cfd 763d
000000a0: 9bfd 33bd 2b2b 81bd 4d7f 18bd 8ecf b7bd
000000b0: ea60 803d a4fd 8fbb 2a9f 47bd c45f b5bd
000000c0: f30a 683d 5bcc 6abd 83a3 89bd 7fde a03d
000000d0: 3550 7f3d 217c fc3c 3b9f 473c 909a 463d
000000e0: c38a 21bb c1a4 433d 9af7 b0ba eba9 26bd
000000f0: 549d 91bd d0e4 3abc 6243 0cbd 5988 433d
00000100: df94 cabd 1f5d 5f3d ee92 a23d 29bc 80bd
00000110: f139 3b3d 034f 68bd fb54 4d3d 713e 8c3d
00000120: 4449 74bd bc5d 373d 341a 8dbd 22fd 7abd
00000130: db4d 2bbb 0ee2 06bc 0dd0 103d 6df5 103d
00000140: 3a19 613d 744d 933d 6986 b4bd a687 efbb
00000150: aa7e a0bd ea3f 67bd d4a7 99bd f000 843c
00000160: b8be 613d 6918 dabc a52a d63b f006 853d
00000170: e10d 803d a2e0 c8bc f894 753d adff e2bb
00000180: 7633 02bd 6be6 3f3d 4b61 443d cb4c 5c3d
00000190: 1d18 23bd 402f 8bbd 1d89 483d d8c8 3f3b
000001a0: 4862 cabc bb62 37bd 9321 5fbc de09 45bd
000001b0: de4c debb 8fdd 8dbd fb4c 84bd fba9 afbd
000001c0: d64f 9e3c 88f1 47b9 9c21 53bd 75f0 00bd
000001d0: 1985 0e3c 70cc 92bd f869 c0bc 1384 593d
000001e0: a526 0c3d 8525 1cbc 1863 b5bc 88cb 573c
000001f0: 8a67 813d c7e2 b4bd 28eb 20bd 8b50 9fbd
00000200: 144c 20bd d82d a0bd 37ea 1b3d b2ce ddbc
00000210: 69eb 8c3c 9290 4cbc 315a 753c 879e 15bd
00000220: c87a 643d f8c5 58bd 05a1 3d3d 99b3 c8bd
00000230: f9dd 103d 485a 79bb 506a 163c ba5a f3bc
00000240: 2a51 f03c 5d10 b2bd 7a2c a13d d71c b43b
00000250: d0bc 19bd a2c3 c8bc 61d2 cb3b 93a2 803d
00000260: 8246 aa3d fa6a 91bc 4f78 7abd 7cc8 733d
00000270: 6e7d 853d 7a14 b53c bae1 50bd 1203 1b3d
00000280: 896c a23d df32 a2bd 0049 c0bd 38da a3bd
00000290: e882 c0bd 4ad3 7b3b 809a 8d3d e35d 373d
000002a0: 33a9 91bd dde5 97bc c1c0 b3bd 3320 16bd
000002b0: 8e64 dcbc 2b6b a1bd 25d2 513d b7fc 713c
000002c0: f008 253d 516a e1bc cf32 a53d 71ae d83b
000002d0: d613 8a3d 2e90 02bb d210 9ebd f6f9 9fbd
000002e0: 33d9 c43c db86 493d 62ab 003c 139a 9a3d
000002f0: aba9 b9bd 927b 663d 52a8 f1bc ae1a bbbd
00000300: ec71 dabb e4de 95bd 3231 4e3d 43b3 fe39
00000310: 8210 43bd 0c94 4f3c 75bf 5d3d c36c 503d
00000320: 4591 70bd 16f6 ab3c 1787 b9bd e2f5 5abd
00000330: 3c96 913d 3bbf 73bd 66a5 413c e8db 8a3d
00000340: 20f1 cb3c b2cd 8d3c bcd1 e63b 6588 88bc
00000350: ee33 413d 970d 9e3d 7825 943d 09a6 c8bc
00000360: 4621 7cbc c4da 063d 99a0 42bc 5a4a d5bc
00000370: a44e 643d 9825 19bd aa59 363c 003b 693d
00000380: a3a6 9a3d 7ae1 9b3d 73e8 d83c edd2 68bd
00000390: fe03 693c e13d 333c 557e 383d bf90 8bbd
000003a0: daf2 99bd 6357 a5bd 51ac 29bd 3142 c9ba
000003b0: 8612 2e3d ceff 17bd 6e45 5bbd 1ea9 7c3d
000003c0: 1830 9ebd 2df7 283d 5fe4 b8bd 398f 813d
000003d0: 5a1b 2c3d eb01 a53d 2b29 17bd 1b9c 543d
000003e0: da8d 5cbc d809 713c 3f33 0c3d 674a 1a3d
000003f0: 1ef8 9b3c 3228 69bd 762a 6bbd 2107 4e3d
0.048155505 0.06591004 0.04407898 0.07851395 -0.070734926 0.050754722 0.07895151 0.02359758
-0.044764034 -0.008436735 -0.05951976 -0.06500714 -0.06531115 -0.050669815 0.07961801 -0.066067636
-0.044952884 -0.026308997 0.03819556 -0.017251378 0.010981352 -0.017972955 -0.08675564 -0.093113825
0.048665587 0.026004417 -0.05161623 0.018060138 -0.07723486 0.08250866 0.049275495 0.05381445
-0.009213298 -0.0132243885 0.011538772 0.066042766 -0.059613265 -0.01365585 -0.072389014 0.060300335
-0.04394303 -0.06307062 -0.03723078 -0.08975135 0.06268485 -0.00439425 -0.048735775 -0.088561565
0.056651067 -0.057323795 -0.067206405 0.07854938 0.06233235 0.030820908 0.01218396 0.048487246
-0.0024649359 0.047764543 -0.0013501525 -0.04068939 -0.07110086 -0.011407092 -0.03424395 0.047737453
-0.09891676 0.054532167 0.07938181 -0.06285889 0.045709554 -0.056715976 0.05012987 0.06847847
-0.059640184 0.044767126 -0.068897635 -0.061276563 -0.0026138935 -0.008232607 0.035354663 0.035390306
0.0549557 0.071925074 -0.08814699 -0.0073098717 -0.07836659 -0.056457438 -0.07502714 0.016113728
0.055113524 -0.026622968 0.0065358453 0.06495464 0.06252647 -0.024521176 0.05995652 -0.0069274516
-0.03178736 0.046850603 0.04794435 0.053784173 -0.039817918 -0.067961216 0.048958886 0.0029264
-0.024705067 -0.04477189 -0.013618845 -0.048105113 -0.0067840656 -0.069270246 -0.06459995 -0.08577343
0.019325178 -0.00019068096 -0.051545724 -0.031479318 0.008698725 -0.071678996 -0.02348803 0.05310447
0.03421654 -0.00953043 -0.022141978 0.013171084 0.06318577 -0.08832317 -0.039286762 -0.07779034
-0.039135054 -0.07821244 0.03806516 -0.027076099 0.017202096 -0.01248564 0.014975117 -0.036528137
0.055781156 -0.052923173 0.04629614 -0.097998805 0.03536794 -0.0038048197 0.00918062 -0.029706348
0.029335577 -0.08694527 0.07869811 0.005496602 -0.03753358 -0.024507347 0.0062201475 0.062810086
0.083142295 -0.017751206 -0.06114989 0.05951737 0.065180644 0.02210449 -0.05099652 0.037844725
0.07930858 -0.07919859 -0.09388924 -0.08000606 -0.093999684 0.0038425499 0.06914234 0.04476727
-0.0711235 -0.018542225 -0.08776999 -0.0366518 -0.026903417 -0.07881769 0.0512258 0.014769725
0.040291727 -0.027516516 0.080663316 0.006612592 0.06742065 -0.0019922364 -0.07718052 -0.07811348
0.02402935 0.049200874 0.007853361 0.075489186 -0.09065565 0.05627019 -0.029499207 -0.09135948
-0.0066664126 -0.07317904 0.050339885 0.00048580216 -0.047623165 0.0126695745 0.054137666 0.050884973
-0.05873229 0.020991366 -0.090589695 -0.05345715 0.07108733 -0.059508543 0.011819219 0.06780225
0.02489525 0.017309997 0.0070440453 -0.0166666 0.047168665 0.07717436 0.07233709 -0.024493234
-0.015388792 0.032923475 -0.01187911 -0.02603643 0.05573906 -0.037389368 0.011129776 0.056941032
0.07551315 0.076113656 0.026478028 -0.05684178 0.014222143 0.010940046 0.045042355 -0.068147175
-0.075170234 -0.08073308 -0.0414241 -0.001535481 0.042498134 -0.03710919 -0.05353301 0.06168472
-0.07724017 0.04125135 -0.09027933 0.06326146 0.042018272 0.080570064 -0.036904495 0.051906686
-0.013461554 0.01471182 0.03422856 0.03766861 0.01903921 -0.0569231 -0.05741354 0.050299767

temporal_emb_converter.bias_hh_l0 f4 [512]
00000000: df9a 2d3d bee4 793b 0e5b eebb baa5 853d
00000010: bfaa f5bb ff23 283c f08b a9bb 4da6 a23d
00000020: 9b1c aebd 2bee e93c 42cd 52bd ed9d c5ba
00000030: 9a07 813d 2bb8 503d 8092 323d 7993 dc3c
00000040: 25f8 833d 6f7e b23d 45ba 9b3d 8791 48bc
00000050: a12c 8fbd 58ba 2cbc 0f45 863d 43fc 543d
00000060: de65 82bd da48 7e3c cb8d 2dbd 2cd6 853d
00000070: a8d1 aa3d 4601 57bd f077 13bd d056 e4bc
00000080: b8ca 233d 6e1a 603d d4a1 efbc 170e bdbc
00000090: 7166 c53b 4c7d 193d 1e85 b43c 6085 693d
000000a0: 5ec5 7d3d f5d5 c23c c2f2 77bd d75c c43b
000000b0: 15e2 5bbd 5fb3 223d 93f3 aa3d 4c8c 053d
000000c0: 2bbd 103d 0562 a4bd f15f 553d b297 76bd
000000d0: 5cac 913c 2f9b 403d 9d10 633d a6e7 2cbc
000000e0: 7376 33bd e04b 883d 8f2c 45bd f30b 5f3d
000000f0: 07b6 ad3d e72d 15bc cf18 953c abc8 803d
00000100: 6aae 61bd 5312 6d3c f7d1 bdbd d07d 07bd
00000110: f359 263d 7ab8 1b3d be80 393d 0489 943d
00000120: 658c 213d 982c 513d dc9f 38bd 29b3 d7bc
00000130: c67e 583d 8884 81bc 6188 543d 6b78 eb3c
00000140: 99b9 8d3d 1a43 a83d 7a08 953d 3e9c 8f3d
00000150: 0794 5e3d 405e 0b3d 5bb7 0dbd a80d 133d
00000160: 004a a7bd 26cd e4bc 763e 11bc 187b 1fbd
00000170: 9ee9 27bd ebc9 523d 37c8 e83c bf47 863d
00000180: 1cd0 513d 8071 3ebd 6ba3 80bc d3c3 8abd
00000190: a4dc 96bc d5ba fbbc 0a83 953d 70f2 95bd
000001a0: 1072 e83c 5046 97bd edd6 86bd 294d 793d
000001b0: 5e33 08bc 4641 9fbd 5ab1 8fbc d16e c73c
000001c0: b149 86bd 6c80 123d 084d 92bc 9d97 983d
000001d0: e633 7fbd bce9 11bc 5c4a debc f134 7ebd
000001e0: 5966 943c 85ff b8bd 5e37 00bc 52e6 283d
000001f0: a874 0ebd 0a3a 99bc 4449 19bd d9e6 a1bd
00000200: 1582 71bd 207c 3a3d a666 a9bd 0b71 793c
00000210: ed90 693c 7ed4 89bd 4d00 acbd 9e53 f2bc
00000220: bff4 abbb 617e 16bd 2448 ef3a c7b8 c7bc
00000230: 62aa d2bc fbda 1c3d cfc9 b73c 3a59 b1bd
00000240: 1e94 adbd aa73 0d3d f90b a1bd 0d60 dcbc
00000250: 30eb 373d d267 193d 0ee2 d13c 97d6 e83b
00000260: da67 11bd 7845 8e3d 12c2 5e3d bd90 a63d
00000270: a870 8d3c f7e4 dabc 6df4 063b 0a16 453d
00000280: 9585 d83b 361e 3fbc 6366 5f3c bc01 6abd
00000290: 40b7 ec3c fa21 833d 97d9 813c bce3 acbd
000002a0: 0979 55bd e992 2bbd 335c 9bbd 55f1 3bbd
000002b0: 9c48 903b 0cb3 a63d 843d f83b 8192 ee3c
000002c0: bfb5 ac3c 6579 3c3d aadd de3c 0dde 7bbd
000002d0: e9f5 b73c fa61 9b3d e328 a63d caaa 643d
000002e0: 34a2 80bd a416 59bd 00a9 fa3c 73da 773d
000002f0: 5e8e 6cbd 72dc 733d fb84 14bd 93f6 433d
00000300: 283b 33bc d17d 2c3d 76db bbbd 528e 37bd
00000310: 8a26 88bd eafc 7a3d 82fe b0bd 486f 7b3d
00000320: a9a9 95bc 9a6a 0f3d 3b76 4c3d 9dcd 2f3d
00000330: 1cb3 88bd a14b 453d 7129 88bd b9be e1bc
00000340: afe2 abbd e546 143d 314b bdbd 73bf 9a3d
00000350: 2954 ffbc 359b 01bd 1c9d 81bd 4196 ec3c
00000360: cb6a d6bc f53e b7bc 158d 853c 6dab a6bd
00000370: 934d 333d bed6 e8bc 8e5c eb3b 7aa9 aa3b
00000380: 54b3 4c3d 155c 513c 5da8 573c b638 adbd
00000390: 8b31 fbbb baf1 3d3d 904d ca3c aedd f5bb
000003a0: f944 b5bb beee 7c3d 5218 973c 582f 5abd
000003b0: 0f1e 9bbd e8d6 3e3c 11a4 a43d 597a 9c3d
000003c0: d645 94bd 2198 2fbb 84d3 b7bd fa5d 51bd
000003d0: 4663 94bd 74c9 c1bc 24ba 993d d8d4 e73c
000003e0: 6990 143c cb47 b13c 3c61 98bd 2fd8 16bb
000003f0: df45 6f3d 6bcd 6c3c 34d4 55bc d54a 9a3d
0.042384025 0.0038130726 -0.007274038 0.065257505 -0.007497161 0.010262488 -0.0051741526 0.079418756
-0.0850155 0.02855595 -0.05146528 -0.0015076973 0.06300278 0.050956886 0.043596745 0.02692579
0.06443814 0.087155215 0.076038875 -0.012241728 -0.06990934 -0.010542475 0.06556141 0.051998388
-0.06367086 0.015520299 -0.042371552 0.06534991 0.0834077 -0.05249145 -0.036003053 -0.027873427
0.03998825 0.054712705 -0.02925197 -0.023078008 0.006024175 0.037473008 0.022036131 0.057011962
0.061955802 0.023783663 -0.060534246 0.0059925127 -0.053682406 0.039721843 0.08347239 0.0326045
0.035336655 -0.08026508 0.05209345 -0.06020326 0.017782383 0.047022995 0.055435766 -0.010553276
-0.043814134 0.06655097 -0.048138198 0.054454755 0.084819846 -0.009105182 0.018200306 0.062882744
-0.055097975 0.014469701 -0.09268563 -0.03307897 0.040613126 0.038017727 0.045288794 0.07252696
0.03944053 0.05106792 -0.04507433 -0.026330547 0.052855276 -0.015810266 0.051887874 0.028743943
0.069201656 0.082159236 0.072770074 0.07012223 0.05434039 0.03402543 -0.03459869 0.035901695
-0.08168411 -0.027929854 -0.0088649895 -0.03893575 -0.04099428 0.051462095 0.028415782 0.06556653
0.05122386 -0.04649496 -0.015702924 -0.06775632 -0.018415757 -0.030728737 0.07300384 -0.07321632
0.028374702 -0.07386458 -0.065839626 0.0608646 -0.008313028 -0.07776122 -0.017540623 0.024344834
-0.06557024 0.035767004 -0.017858997 0.07450793 -0.062305354 -0.008905824 -0.027135067 -0.062062208
0.01811521 -0.090331115 -0.007825701 0.041235276 -0.03477922 -0.018704433 -0.037423387 -0.07905359
-0.058961947 0.04552853 -0.08271532 0.015224705 0.014255744 -0.06729983 -0.08398495 -0.029580887
-0.005247682 -0.036741618 0.0018255753 -0.0243801 -0.02571601 0.038294774 0.022435097 -0.08659597
-0.08475517 0.034534134 -0.07863612 -0.02690127 0.044902027 0.037452526 0.025620487 0.007105659
-0.03549943 0.06946844 0.0543843 0.081330754 0.017265633 -0.026720507 0.0020592466 0.04811672
0.006607721 -0.011664918 0.013635251 -0.05713056 0.028895974 0.06402965 0.015850825 -0.084418744
-0.05211738 -0.04188815 -0.07585945 -0.04588445 0.004403187 0.08139619 0.0075756926 0.029122593
0.021082757 0.04601421 0.027205307 -0.06149106 0.022456126 0.07587047 0.08113267 0.05582694
-0.06280938 -0.053000107 0.030598164 0.060511064 -0.05775296 0.059536405 -0.036259633 0.047842573
-0.010939397 0.042112175 -0.09172718 -0.04481346 -0.06647976 0.061276354 -0.086422935 0.061385423
-0.018269377 0.035013773 0.04991744 0.042920697 -0.066747874 0.04816783 -0.06648529 -0.027556764
-0.08392846 0.036200423 -0.09242857 0.07556047 -0.03116806 -0.031642158 -0.06328794 0.02888024
-0.02617397 -0.022368887 0.016302625 -0.081381656 0.043775152 -0.02842271 0.0071826642 0.0052081915
0.049975708 0.012778302 0.0131626995 -0.084580824 -0.007665818 0.046373107 0.024695188 -0.007503233
-0.005531904 0.06175112 0.018444214 -0.053267807 -0.075740926 0.011647917 0.08039106 0.076405235
-0.07239883 -0.0026793557 -0.0897589 -0.051115014 -0.072454974 -0.02365563 0.07506207 0.028299734
0.009067633 0.021640679 -0.07440421 -0.002301704 0.058416244 0.014453272 -0.013051081 0.07533804

temporal_emb_converter.weight_ih_l1 f4 [512, 128]
00000000: 0016 e63b 624a fcbc 22e1 503d a080 11bc
00000010: f792 a9bd 70db 04bc 845e 0e3d a3c9 af3d
00000020: 7087 dabc 5089 e23c 31e7 b4bd 3ed1 aebd
00000030: d610 3b3d eea5 273d 149d b33c 4fd2 a93d
00000040: d45f c73c f92a 36bd b25b 98bd e037 a2bc
00000050: 6e43 453d 2088 383c b637 733d c2c3 a3bd
00000060: 71a7 863d 960b 433d de05 a5bd c480 ac3c
00000070: 42e1 533d 802d 823b b2bc 323d 73da 82bd
00000080: bc7b f23c 1301 0abd 2881 cd3c 7a9e 59bd
00000090: 62ec 253d a997 a53d c6e1 563d fe5e 96bd
000000a0: e513 b33d 86d2 4b3d 074f 64bd 1a27 81bd
000000b0: f154 8fbd e8f8 c4bc d04c f3bc c0d2 de3c
000000c0: ca18 2b3d 5b13 22bd 45ec a8bd 7751 903d
000000d0: f921 af3d 74d5 5ebd 4f5a 0dbd 507e e13c
000000e0: b071 93bd 4097 e9ba d9fe 37bd c65d 643d
000000f0: 3aaa 0fbd 8ae8 abbd 00f3 9c39 f8c2 c53c
00000100: a48a bebc a0bf 5dbc ca7f ebbc 6c78 963c
00000110: d0f9 92bc c63f d7bc 06ec 573d 5020 77bd
00000120: 74b7 ad3c 14b6 e03c 6040 4e3b e841 02bc
00000130: 4cb6 96bd d3a8 8a3d a165 99bd b063 c3bb
00000140: c272 783d 3ae1 7e3d b947 98bd cc05 d4bc
00000150: c113 a43d 6cf4 cabc 4014 fbbc f833 80bd
00000160: e1b9 40bd dd01 90bd 9df8 48bd c514 07bd
00000170: fe5d f2bc 33e1 993d ef3e a7bd 28c4 65bd
00000180: a628 4cbd 9e62 343d f736 16bd fa60 533d
00000190: 2067 473b e0a6 25bc d0a9 683c 2401 abbd
000001a0: c0ee f93b a656 173d 62de f8bc b0f5 cc3b
000001b0: 6ad9 233d af74 803d 4143 893d fe94 543d
000001c0: 7046 cd3b a332 19bd e0ec ccbb 15fc b23d
000001d0: 5ef8 363d 76b8 363d b0be a73c d3c8 aa3d
000001e0: 00cd 5abd 10c9 26bc 2263 0a3d 1eb5 2c3d
000001f0: c0ef f03b 229d 7f3d ce00 89bd 515f b03d
00000200: 6271 383d e7e3 b0bd 42e9 643d efd8 4bbd
00000210: 0eea 76bd b82b bbbc be8d 26bd 88d9 393c
00000220: ae6e 0e3d 30a7 65bc 40ae 0f3d 041a 8dbd
00000230: edd7 58bd 4779 843d b330 993d b819 a53c
00000240: 62fd 75bd 545a 2bbd 0836 38bd 48c6 ce3c
00000250: 8db6 8b3d fab7 783d a498 12bd 786b 0b3d
00000260: 838b 873d 0954 28bd 1639 273d 3ea1 443d
00000270: 9a5b a0bd d140 863d 51bd 873d 400c 783c
00000280: a048 7bbc 0c5d aabd 943e ecbc f9b8 a33d
00000290: 803e ad3a 28d8 adbd 20d4 483b d222 5f3d
000002a0: a83b 6b3c 93d0 913d 44bf ab3c 6686 723d
000002b0: 9bc1 8d3d 4f9e afbd 2e5c 003d 411c a63d
000002c0: 6480 f63c 00cc a03c 3511 983d 2081 1dbb
000002d0: dcf4 c13c a4cf d23c aac7 9ebd 9c8c c9bc
000002e0: 5876 2cbd b586 8a3d 9478 5cbd 0075 9cbc
000002f0: 0ce9 de3c 3dcc 34bd 9ed8 6abd d864 0a3c
00000300: de29 04bd bf06 a63d ea4e 6dbd 982e 99bc
00000310: 3230 54bd 4b9e 973d a2f2 93bd 5ae9 1b3d
00000320: 6c60 c83c 556b 60bd 01e8 a4bd 29e3 26bd
00000330: f567 61bd e050 b4bb 2f60 2bbd 3a3e 7b3d
00000340: a471 fdbc 578b 843d 522b 303d 582c 5a3c
00000350: 54ac fe3c 7e10 7f3d 20a9 043d 0aa6 7f3d
00000360: 5c50 e53c d058 25bd 6c4d aebd 8a06 e3bc
00000370: 8c16 ae3c b3ff 04bd 88ab 56bd 90ad 67bd
00000380: 7759 aebd c09f 7c3b 09c1 b3bd 7089 9abd
00000390: 40d2 953a ae37 97bd f46a 9cbc 1006 5bbc
000003a0: 2c66 b5bc 5966 963d e6e8 233d c2c7 303d
000003b0: 6ab9 093d 3851 453c 3127 80bd 7c7f 0e3d
000003c0: 5ccd 35bd e70b 34bd 98a5 3ebd 745b aa3c
000003d0: 0fc3 66bd 0476 a53c 428e 6e3d 4897 60bd
000003e0: 0a68 53bd 749f 33bd 0017 0cbc 9f80 a93d
000003f0: 6464 c2bc 86a5 0ebd 5e71 0f3d d88d 12bc
0.0070216656 -0.030797187 0.050995953 -0.008880764 -0.082799844 -0.008108959 0.034758106 0.08583381
-0.02667591 0.027653366 -0.08833159 -0.085360035 0.045670353 0.040929727 0.021925487 0.08292066
0.024337687 -0.044474576 -0.074393645 -0.019802034 0.04816001 0.0112629235 0.059379302 -0.07996322
0.06574906 0.04761847 -0.0805776 0.021057494 0.051728494 0.003972709 0.043636985 -0.06389322
0.029600017 -0.03369243 0.025086 -0.05312965 0.040508635 0.080855675 0.052461408 -0.07342337
0.08744029 0.049761318 -0.05573943 -0.06306286 -0.06998623 -0.024044469 -0.029699713 0.027200103
0.041771688 -0.03956924 -0.0824819 0.07046788 0.08551402 -0.054402784 -0.034509953 0.02752605
-0.071994185 -0.0017821565 -0.044920776 0.05575349 -0.03507445 -0.08393963 0.00029935688 0.02414082
-0.023259468 -0.0135344565 -0.028747458 0.018367968 -0.017941386 -0.026275527 0.052715324 -0.06033355
0.021205641 0.027430572 0.0031471476 -0.007950284 -0.07358989 0.06770482 -0.07490087 -0.0059628114
0.060656317 0.06222651 -0.07435555 -0.02588167 0.0801158 -0.024774753 -0.030649304 -0.06259912
-0.047052268 -0.070316054 -0.04906522 -0.03297879 -0.029585835 0.075136565 -0.081663005 -0.056095272
-0.049843453 0.04403936 -0.036673512 0.051606156 0.0030426458 -0.010110587 0.014200643 -0.08349827
0.007627338 0.03694787 -0.030379478 0.006254874 0.040002264 0.06272256 0.06702281 0.051899903
0.0062645003 -0.037401807 -0.0062538236 0.08739487 0.044670455 0.04460951 0.02047667 0.083390854
-0.05341816 -0.010179773 0.033785947 0.042164914 0.007352799 0.062405713 -0.066896066 0.0861193
0.045030005 -0.08637219 0.055886514 -0.04976743 -0.060281806 -0.022847995 -0.04066252 0.011343367
0.03477352 -0.014016911 0.035078287 -0.06889728 -0.052940298 0.06468444 0.07479992 0.020153865
-0.060056098 -0.04183419 -0.044973403 0.025241032 0.06821928 0.06072233 -0.0357901 0.034038037
0.066184066 -0.041095767 0.040825926 0.048005335 -0.078299716 0.065553315 0.06627906 0.015139639
-0.015337139 -0.083185285 -0.028838433 0.07994265 0.0013217479 -0.08488494 0.0030644014 0.054476567
0.014357485 0.071198605 0.020965226 0.059210204 0.06921693 -0.08575117 0.03133791 0.08110858
0.030090518 0.019628525 0.07425157 -0.0024033263 0.023676328 0.025733776 -0.07752927 -0.02460318
-0.04210505 0.067639746 -0.05382593 -0.019098759 0.027210735 -0.04414009 -0.05733549 0.008446895
-0.03226649 0.081067555 -0.057936586 -0.018698975 -0.051803775 0.07403239 -0.07224013 0.03806434
0.02446004 -0.05478986 -0.08052064 -0.04074398 -0.05503078 -0.005502805 -0.041839775 0.06133864
-0.030937977 0.064718895 0.043010063 0.013316236 0.031088032 0.062271588 0.032387853 0.062414207
0.02799242 -0.0403679 -0.08510861 -0.027713079 0.021250986 -0.032470416 -0.05240968 -0.056562006
-0.08513158 0.0038547367 -0.08777053 -0.075457454 0.0011430457 -0.07383667 -0.019093968 -0.013368145
-0.022143446 0.0734374 0.04001703 0.043159254 0.03362409 0.01204329 -0.06257475 0.034789547
-0.0443853 -0.043956663 -0.04654464 0.020795561 -0.056338366 0.020197876 0.058241136 -0.054831773
-0.05161289 -0.04385324 -0.0085504055 0.08276486 -0.02372951 -0.034825824 0.035020225 -0.008944951

temporal_emb_converter.weight_hh_l1 f4 [512, 128]
00000000: 3116 a5bd 20e5 dbbb 40de 153b b87a 4dbc
00000010: 10c4 bebb 61ea b03d da9a f1bc 8a39 183d
00000020: 8a33 623d dc1f 8cbc a073 203b 7a52 aebd
00000030: 7052 a03c 9969 af3d aed6 073d b06c 5f3c
00000040: 3a98 4f3d 8324 883d 68b5 bebc ea97 0f3d
00000050: d8ee 73bc 75c7 0bbd aa12 5f3d 6e5a 603d
00000060: ba53 463d 7b1a 4fbd 02c8 90bd 307c 58bd
00000070: 38f6 203c 4faf acbd 58b6 4abd 3c5e e93c
00000080: 00f8 963b 58b0 2dbd 51c8 96bd adb5 b0bd
00000090: c0a7 473c 1652 583d 4009 9ebd c8b9 35bc
000000a0: 3f39 5cbd eaae 3b3d e6c8 7f3d ad95 9e3d
000000b0: 38c7 a7bd bfc4 8c3d 6c22 d73c 8e3a 5b3d
000000c0: 43c4 34bd 00fe 683a 6c53 93bd f21c 55bd
000000d0: 5822 f43c 82c5 373d 963b 4f3d 6d83 aebd
000000e0: 75ed 2cbd 0053 c43c 7cd6 c3bc 284b 0f3c
000000f0: f8ad cb3c c028 b63b 68e9 75bc c10d 59bd
00000100: e891 f9bc 13e0 9d3d fcc6 873c f8bd a4bd
00000110: 505a 33bc 2024 04bb 5a46 4a3d b06b e03b
00000120: efdb a8bd f721 9d3d 1264 6b3d 132e 78bd
00000130: 76da 233d 9b9a b3bd 91e0 993d 622c 2e3d
00000140: 5854 263c e995 843d 1a58 9fbd 5de9 8c3d
00000150: a04c 32bb 4f4c 943d a4ab 91bc 3e3f 413d
00000160: 4027 583c cd45 0ebd 2353 83bd 4c2f 883c
00000170: ae9c 323d 215a a93d 6a1d 5cbd 9349 adbd
00000180: 5817 a1bd 8049 da3a 32bd 433d f049 6e3c
00000190: 2efd 6e3d a740 9b3d 064e 1b3d 4409 8e3c
000001a0: d03b 3c3c fd89 abbd 70a6 b33c d764 a33d
000001b0: aef1 4f3d d0a7 c13c 631e aabd 5ec5 223d
000001c0: abdf ac3d 5793 6abd 867d 093d c0ea 403b
000001d0: f2ff 743d a1fd a73d ebeb 46bd a44d 76bd
000001e0: c85b 82bd 52da 7abd 8e10 7abd c006 1abd
000001f0: 487e 5bbc dcdd 2ebd f07e d4bc d4ee 85bc
00000200: d89f 253c 8068 54ba 1e88 a5bd 2aa5 593d
00000210: 2d89 05bd 00b6 c13a 286d abbd 0e5d 393d
00000220: dc62 e0bc 3a37 21bd e63b 9ebd 3c1d c2bc
00000230: 62fc 04bd 7c79 94bc 4ea4 3dbd 4e58 463d
00000240: f7bf 3abd 809d 0d3d 3f6b 9b3d 764d 4e3d
00000250: b41d efbc af62 aebd e059 11bb 7e5c 463d
00000260: 3cf5 b1bc fe88 f2bc e2a4 663d fb20 15bd
00000270: 2400 8fbd faaf 4a3d 2ad4 91bd 0aff 023d
00000280: e181 54bd e88b 733c 5028 2ebc 6042 353c
00000290: aeee 76bd 927f 47bd 72b8 363d ef6e 863d
000002a0: 457e 92bd 20b5 073c 3171 86bd b889 c43c
000002b0: 0c6d abbd c850 8f3c 0f73 8e3d 76e7 a5bd
000002c0: 5f06 18bd 801b 323b e046 f6bb 8b35 a5bd
000002d0: 705d 70bd fea3 123d 720c ebbc 68fc 4d3c
000002e0: 38e6 f6bc 47c3 8e3d 80d2 82bc c092 783c
000002f0: 3fcd aa3d fa04 eabc 1aa5 47bd 0867 113d
00000300: 6d50 843d c0cb aeba aed4 60bd 6070 ee3b
00000310: 7017 fe3b b38f 9b3d 3039 7bbc 4c8a 26bd
00000320: c81c c83c ee0a 3d3d 3675 493d 4420 de3c
00000330: 005b 8dba d8b7 e93c ed92 8e3d 956e a33d
00000340: 184f 8d3c 83b4 a23d b8d7 d1bc 1b40 37bd
00000350: 9ee8 293d 6e0d 2d3d 40c4 80bd ff78 aebd
00000360: 8607 323d 1ed2 193d 1525 b43d 45fe a63d
00000370: e0cb 833b c0da 953a 9205 423d b512 58bd
00000380: e044 09bd fe81 183d a463 c4bc 3118 9d3d
00000390: 70dc bcbb c632 2f3d 956c 1abd 6278 f5bc
000003a0: 82de 3d3d 39e2 ae3d 8b05 b0bd 40fa 213c
000003b0: a088 1a3c 3e1d 68bd b258 59bd 0aa9 9dbd
000003c0: 598a 7dbd d004 ad3b 10e7 70bc 10ab 18bd
000003d0: c09d 9ebd c083 8a3b af98 933d f059 373c
000003e0: 8089 28ba f057 a4bd 0896 0e3d a0c4 a0bd
000003f0: 9076 863b f28f 013d cabc 513d 889b b2bc
-0.08060873 -0.0067106634 0.0022868067 -0.012541465 -0.0058217123 0.08638454 -0.029492784 0.03716425
0.055224933 -0.017105035 0.002448298 -0.08511825 0.01957056 0.08565063 0.03316372 0.013636753
0.050682284 0.06647589 -0.02327986 0.035056986 -0.014888488 -0.034125764 0.05446116 0.05477374
0.04841969 -0.050562363 -0.070693985 -0.05285281 0.009824328 -0.08431875 -0.049490303 0.028487317
0.0046072006 -0.042404503 -0.07362426 -0.08628402 0.012185991 0.05281266 -0.07716608 -0.011091657
-0.05376553 0.045821108 0.06244745 0.07743392 -0.08192295 0.06873464 0.02626153 0.05352264
-0.044132482 0.00088879466 -0.07193646 -0.052029558 0.029801533 0.044866093 0.050593935 -0.08521161
-0.042218644 0.023965359 -0.023905985 0.008745946 0.024863228 0.005559057 -0.015009262 -0.052991632
-0.030465081 0.077087544 0.016574375 -0.08044046 -0.010946825 -0.0020163134 0.0493835 0.006848775
-0.08245074 0.07672494 0.05746848 -0.060590815 0.040003262 -0.08769723 0.07513536 0.042522795
0.010151945 0.064739056 -0.07780476 0.06880448 -0.0027206317 0.07241117 -0.01778204 0.047179453
0.013192952 -0.034734536 -0.064123414 0.016624115 0.043606453 0.08269144 -0.05373899 -0.08461299
-0.078657806 0.0016653985 0.047787853 0.014543995 0.05834692 0.07580691 0.037916206 0.017338403
0.01148887 -0.083759286 0.02192995 0.07978218 0.050767593 0.02363959 -0.08306577 0.039739005
0.08441099 -0.05726942 0.033566974 0.0029436797 0.0598144 0.08202673 -0.048564833 -0.060132638
-0.06365162 -0.061243363 -0.061050944 -0.037604094 -0.013396807 -0.04269205 -0.025939435 -0.016349234
0.0101089105 -0.000810273 -0.08082603 0.05313603 -0.032601524 0.0014778972 -0.08370429 0.04525476
-0.02739089 -0.03935931 -0.077262685 -0.02369558 -0.032467254 -0.018124335 -0.04629927 0.048424058
-0.04559323 0.03457403 0.07588815 0.05036684 -0.029188968 -0.08514916 -0.0022178814 0.04842805
-0.021723382 -0.029606339 0.05630959 -0.036408406 -0.06982449 0.04948423 -0.07120545 0.031981505
-0.051881675 0.014864899 -0.010629728 0.011063188 -0.060286216 -0.048705645 0.044609495 0.06564128
-0.0715299 0.00828293 -0.06564558 0.02399145 -0.083704084 0.017494574 0.069555394 -0.08100788
-0.03711545 0.0027177036 -0.007515773 -0.08066853 -0.05868286 0.035800926 -0.028692458 0.012572385
-0.030139074 0.0697084 -0.015969515 0.015171707 0.08339929 -0.028566826 -0.048741437 0.03549865
0.064606525 -0.0013335869 -0.054890327 0.0072765797 0.007754259 0.07595768 -0.015333459 -0.040659234
0.024427786 0.046153 0.049184047 0.027114995 -0.0010784566 0.028530046 0.069616176 0.07980076
0.017249629 0.07944586 -0.025615558 -0.04473887 0.041481607 0.042249136 -0.06287432 -0.08519172
0.043464206 0.0375539 0.08796135 0.08153967 0.0040221065 0.001143299 0.047368594 -0.052752215
-0.03351295 0.037233345 -0.023973294 0.0767063 -0.005763583 0.04277303 -0.03770121 -0.02996463
0.046354778 0.08539242 -0.08594807 0.009886324 0.009431988 -0.056668513 -0.053063102 -0.07698257
-0.061899517 0.0052801147 -0.014703527 -0.037272513 -0.07744932 0.0042271316 0.072068565 0.011190876
-0.00064291805 -0.08024585 0.03481105 -0.07850003 0.004103489 0.031631418 0.051205434 -0.021802679

temporal_emb_converter.bias_ih_l1 f4 [512]
00000000: 9490 e4bc 268d 313d 4058 ba3b fc35 f83c
00000010: 3e3b 5fbd e0ff 103b 840f a4bc 90d3 763c
00000020: 7467 8fbc 00d8 bc3b 66a5 06bd 4894 99bc
00000030: ef22 aa3d 2eb3 27bd c6e1 59bd d766 a1bd
00000040: 99b9 953d 421f 91bd 7c64 b23c 26ff 25bd
00000050: 6922 b43d 2566 803d 205b cb3c 4ff9 59bd
00000060: dc52 51bd 4317 853d 8316 913d ea76 9ebd
00000070: 16fc 80bd d1fe 5ebd e44a c53c e102 853d
00000080: 181c bdbc 07cd b33d 1e4d 82bd ae18 073d
00000090: 808f a93b 10d5 08bd c90b 64bd 6009 4abb
000000a0: f030 8dbb 0e1a 0a3d aca4 9fbd b1f1 b43d
000000b0: 70b8 7abd 6628 d6bc 6df2 933d 1895 4b3c
000000c0: 02bc 95bd ab86 913d ab9a b1bd 6eba 0c3d
000000d0: cec9 49bd d023 8abd 06e6 77bd 26ce 3c3d
000000e0: 1009 fb3c 268a 53bd 3b1a 803d 0019 d6bb
000000f0: ae28 1b3d a7ba 97bd 5772 9a3d e2d8 593d
00000100: e249 453d d806 89bd bbd8 8b3d 5ecd 053d
00000110: c2b8 f8bc 0cb4 c2bc 1de1 0dbd b517 85bd
00000120: 2413 93bd 3177 b1bd 50e0 91bb 5956 ab3d
00000130: 7d55 23bd 704c e33b fc1b 84bd 71b0 8a3d
00000140: 70d9 5f3c 5049 993b d8cb aabd 4cd3 b13c
00000150: 1395 913d bb1f 18bd cedd 4dbd 30b9 4dbc
00000160: 0082 c63b 4246 1d3d fa7a 27bd 19f8 afbd
00000170: dacf 8bbd 0073 9c3a 598b 21bd da5e 1c3d
00000180: 0e2b 3e3d b1c4 08bd 0c12 a53c 4c5e bd3c
00000190: c2f0 9cbd 7624 693d 6ac6 723d 1678 783d
000001a0: 8ee3 153d f72c 48bd 105c 11bc d758 823d
000001b0: 8693 703d 9193 00bd c0db 313c dd04 8c3d
000001c0: 9128 12bd e4ea 4abd 280e 41bc 7ccb aebc
000001d0: 9bfa 2ebd 267b 3f3d 30b8 373c 0018 38bb
000001e0: dd66 0fbd 9313 44bd f81a e63c 5477 963c
000001f0: a38c a43d 86ea 90bd 96e3 673d 9a1e 0c3d
00000200: f4f9 acbd 28ae 03bc b018 b33c ba5e 71bd
00000210: a088 6d3c e9ea 79bd e7ce af3d 7861 e4bc
00000220: b09c 983b 24aa 06bd 5612 683d a0df 58bc
00000230: 80ca 9c3b ab7e 8f3d 76ca 453d 018b a13d
00000240: 79fe b3bd 8e05 66bd 46f1 633d f62c a0bd
00000250: 720d 6a3d 3cdc 2ebd 9ce2 c13c be1d 0dbd
00000260: da90 0c3d 80f0 7bbd 10c5 ef3c 2424 953c
00000270: 25be ae3d a446 86bc 40cf 8cbb 6fcb b23d
00000280: f432 53bd 82ab 63bd a315 b33d 6d77 45bd
00000290: 79fb a03d c480 97bd 3512 5bbd 4521 9d3d
000002a0: 10a8 b13b 2351 9f3d 4000 2abb e791 8f3d
000002b0: e838 96bd 2693 3e3d 0066 513b 5245 54bd
000002c0: b0fb 5cbc cca2 6cbd d963 833d e28a 96bd
000002d0: 305f 983b be9c 5d3d af18 883d 637e 9abd
000002e0: 0af1 1bbd 8e4b 353d 11b5 97bd 5ad9 5a3d
000002f0: 3418 a6bd b2ec 083d 3462 af3c 9cdf 57bd
00000300: 72d1 70bd f0c6 dfbc 5d6f 823d fa63 273d
00000310: 0a6a 2d3d 1290 633d 4631 afbd ca2f 32bd
00000320: 0402 ebbc 1cfc 8ebc 14a3 a9bd 24eb 8a3c
00000330: e65c 24bd 2071 bfbc c4d0 67bd 5880 8b3c
00000340: 60c6 17bc 1350 66bd d134 aa3d 0494 59bd
00000350: 6c55 80bd d65c 2b3d 1e61 74bd 662d 313d
00000360: e01b eebc aa39 493d 86da efbc e659 633d
00000370: c087 ff3c 82dc 7d3d 9090 dabc c0af f13c
00000380: 79e5 af3d 18bd 1abc 7668 273d 9504 5bbd
00000390: fcc8 0fbd 2e3c 643d 8864 5e3c acac 1fbd
000003a0: 0623 063d f858 dabc 0d21 0ebd 30ff 9ebc
000003b0: 71f2 ab3d 46ee 213d a001 80bd a643 543d
000003c0: c135 913d 1077 d2bb d224 7b3d eac5 3bbd
000003d0: 6847 e1bc 00ae 60bb 7e19 5d3d 3286 623d
000003e0: d050 923c a3a6 8a3d 30d5 bb3c ae7b 513d
000003f0: 84c6 a2bc 9182 b4bd 5f8e 923d d4c7 b73c
-0.027900971 0.0433475 0.0056867898 0.03029918 -0.054499857 0.002212517 -0.02002693 0.015065089
-0.017505385 0.005763054 -0.03287258 -0.018747464 0.08307444 -0.040942363 -0.05319383 -0.07880943
0.073107906 -0.0708604 0.02177643 -0.04052653 0.08795626 0.062694825 0.024823725 -0.053216275
-0.05110441 0.064985774 0.07084372 -0.07737525 -0.062980816 -0.05444223 0.024083562 0.0649469
-0.023084685 0.0877934 -0.06362365 0.03298252 0.0051745772 -0.033406317 -0.0556753 -0.0030828342
-0.0043088123 0.033716254 -0.077950805 0.088351615 -0.06121105 -0.02614231 0.072239734 0.012425683
-0.0731125 0.07105764 -0.08672079 0.03435748 -0.04926472 -0.06745112 -0.0605221 0.046095036
0.03064397 -0.05164542 0.06255003 -0.006533742 0.037880592 -0.07408648 0.0754134 0.05318535
0.048166163 -0.066907585 0.068284474 0.032666557 -0.030361537 -0.023767494 -0.034638513 -0.064986624
-0.07181385 -0.08665312 -0.004451789 0.08366079 -0.03987645 0.0069366023 -0.0645065 0.06771935
0.013662681 0.004677929 -0.08339661 0.0217072 0.07108512 -0.037139636 -0.050260358 -0.012556359
0.0060579777 0.03839708 -0.040888764 -0.08592243 -0.06826754 0.0011936128 -0.039439533 0.038176395
0.04642778 -0.033390705 0.020150207 0.023116253 -0.076631084 0.056919537 0.059271254 0.060661398
0.036593966 -0.048871007 -0.008872047 0.06364601 0.05873444 -0.03139073 0.010855615 0.06836865
-0.03568322 -0.049540415 -0.01178316 -0.021337263 -0.042719465 0.046748303 0.011213347 -0.0028090477
-0.035010207 -0.04787023 0.028089032 0.018367447 0.08034637 -0.07075982 0.056613527 0.03420887
-0.08446112 -0.008037128 0.021862358 -0.05892823 0.014497906 -0.061015043 0.08584385 -0.027878508
0.0046573505 -0.032877102 0.05665811 -0.01323691 0.004784882 0.07006582 0.048288785 0.07887841
-0.08788771 -0.05615764 0.05565002 -0.078210756 0.05714173 -0.0426905 0.023667626 -0.034452192
0.03431783 -0.061508656 0.029268771 0.01820571 0.08532361 -0.016391106 -0.004297167 0.08730208
-0.051562265 -0.055583484 0.08744361 -0.048209596 0.078604646 -0.07397607 -0.05348416 0.07672361
0.005421646 0.077791475 -0.002594009 0.070102505 -0.07335073 0.04652705 0.0031951666 -0.05182392
-0.013487741 -0.057772443 0.06415529 -0.073507085 0.004650019 0.05410456 0.06645333 -0.075436376
-0.03807167 0.044261508 -0.074075826 0.05342994 -0.08110085 0.033428855 0.021409132 -0.052703485
-0.058793493 -0.02731654 0.06368897 0.04086683 0.042337455 0.055557318 -0.0855432 -0.043502606
-0.028687485 -0.0174542 -0.08283058 0.016957827 -0.040127657 -0.023369372 -0.05659558 0.017028973
-0.009263605 -0.05622871 0.08310855 -0.053119674 -0.06266293 0.041836582 -0.05966293 0.043256186
-0.029066026 0.04912726 -0.029279005 0.055505656 0.03119266 0.06197787 -0.02668026 0.02950275
0.0858869 -0.0094444975 0.040871106 -0.053471167 -0.035103783 0.055721454 0.013573773 -0.038983032
0.032748245 -0.026653752 -0.03469949 -0.019408792 0.083958514 0.039533876 -0.0625031 0.051822327
0.07090331 -0.0064228848 0.06131441 -0.045843042 -0.02749987 -0.00342834 0.05397939 0.05530376
0.0178608 0.06770065 0.022928804 0.05114334 -0.01987005 -0.08813966 0.071560614 0.022434153
