models/attention_based/helpers/train_stam/checkpoint/encoder.pth (torch, 799807 bytes, 8 tensors)

temporal_emb_converter.weight_ih_l0 f4 [512, 1]
-0.00066174567 0.04741537 -0.072747596 -0.065048434 -0.034043156 0.023701988 -0.0017512515 0.070082195
-0.007843941 0.023388669 -0.026712112 -0.01737409 -0.08444168 -0.05853802 -0.03643572 0.0032742172
0.03494302 0.05303503 -0.05992209 -0.03848984 0.032104157 0.073396616 -0.01819034 0.066142045
-0.014246732 0.009352736 0.08003355 -0.08199525 -0.055643816 -0.022376858 -0.034453772 0.076367594
-0.05729153 -0.04068806 -0.061751675 -0.08278108 -0.051595856 0.07597845 0.039440505 0.0428394
0.0046484843 -0.045315247 0.014953956 -0.082527734 -0.06386644 -0.045566842 0.05576756 0.051823966
-0.03919979 -0.0031892657 0.05652971 0.087869786 0.035079762 0.011940636 0.059263177 -0.052043267
0.01647064 -0.068527974 -0.061260737 -0.045659967 0.03999334 0.035546295 -0.05235706 0.026702747
0.048522733 -0.011156142 0.0033748 0.02048 0.05483406 0.08486997 -0.06811415 -0.032391652
0.034737498 0.0732341 0.07691618 0.07799005 0.017590567 -0.07686097 0.0081310645 -0.055296224
-0.08237389 0.078532375 0.06720694 -0.08816984 0.016543828 -0.014889903 -0.014545292 -0.040460374
0.033990286 -0.052352726 0.032402404 0.044698708 0.063274704 0.03304939 -0.08748106 -0.057337247
0.044133626 0.0184998 -0.06895034 -0.050895732 0.08315127 0.059557654 -0.03853954 -0.022246003
-0.08419857 -0.0015887022 -0.06656163 -0.068178944 -0.0048701614 0.013271071 -0.036197703 0.05244767
-0.053787764 0.08020095 0.060572527 -0.07453638 -0.021998473 0.0039883107 0.012895957 0.020963445
0.03468609 0.0052944794 -0.043127216 0.041824393 -0.08478642 -0.052388363 -0.022126243 -0.043055143
-0.030921195 -0.072445005 -0.01880154 0.018893577 -0.057581984 -0.0045360327 0.06327287 -0.009086341
0.0024565086 -0.0076251626 0.017888151 0.056200795 0.08372552 0.056131534 0.08391709 -0.0063923895
-0.07940115 -0.041902903 0.060184084 -0.00057297945 -0.043933105 -0.06773303 -0.08271842 -0.07460049
-0.017928407 0.048472695 0.047786377 -0.08524454 0.055135064 -0.069164716 -0.018686205 -0.035839055
-0.017024942 -0.017354406 -0.079315275 -0.07631785 -0.01383096 0.0011430532 -0.040152606 0.033295818
-0.07955467 -0.005965084 0.077730425 -0.036052898 0.07981495 0.032010175 -0.07976703 0.055923067
-0.010199524 -0.03945716 0.07068003 -0.0714262 0.009484507 -0.018505752 0.06311924 0.024673127
0.042471074 0.031215139 -0.021255158 -0.01858855 -0.07283919 0.047892712 0.07017841 0.060477503
-0.06234722 0.0039421096 -0.06230796 -0.048656385 -0.051504374 0.030206278 -0.05267178 -0.0019283891
0.0037183315 0.05697716 -0.06681453 -0.06067968 -0.051323712 0.061865963 -0.031772517 0.07455457
0.031961896 0.011192262 -0.0006579682 -0.017472744 0.011089765 -0.020183012 -0.00062105805 0.011277735
-0.06913781 -0.04632711 0.07137295 -0.07173127 -0.0063468292 0.087437175 0.031929143 0.0025025457
-0.07659822 0.04378564 -0.06295732 -0.025090292 -0.029655732 -0.013089202 0.00096681714 0.07290337
0.011034295 0.079168804 0.054068245 -0.055880345 0.039642535 -0.062481374 -0.037461203 0.02599702
0.029185131 0.06631141 -0.02845361 0.00014149398 0.0455044 -0.08547968 0.063903056 -0.07309031
0.0012182146 -0.015027501 -0.046551753 0.011682376 0.07308998 -0.025837637 -0.05247564 -0.03268944
00000000: 0079 2dba 9e36 423d b1fc 94bd 1d38 85bd
00000010: d670 0bbd ac2a c23c 408a e5ba 4187 8f3d
00000020: e083 00bc 9899 bf3c 5cd3 dabc 1c54 8ebc
00000030: c2ef acbd 90c5 6fbd 9f3d 15bd 4094 563b
00000040: 6a20 0f3d 423b 593d de70 75bd 86a7 1dbd
00000050: a67f 033d f750 963d e803 95bc 7b75 873d
00000060: 206b 69bc 383c 193c a1e8 a33d 20ed a7bd
00000070: c5ea 63bd ac4f b7bc 661f 0dbd 9d66 9c3d
00000080: 86aa 6abd 86a8 26bd 53ef 7cbd 2089 a9bd
00000090: 2d56 53bd 979a 9b3d 5e8c 213d 5e78 2f3d
000000a0: 5052 983b 7b9c 39bd 7001 753c 4d04 a9bd
000000b0: 68cc 82bd 4ca4 3abd 866c 643d 5e45 543d
000000c0: f68f 20bd 0003 51bb b28b 673d 13f5 b33d
000000d0: ccaf 0f3d a8a2 433c f2bd 723d 522b 55bd
000000e0: 70ed 863c 6558 8cbd 8aec 7abd f205 3bbd
000000f0: 0ed0 233d fe98 113d 5b74 56bd b8bf da3c
00000100: c6bf 463d 40c8 36bc c02b 5d3b acc5 a73c
00000110: ae99 603d 4fd0 ad3d 6e7f 8bbd 1cad 04bd
00000120: e848 0e3d c3fb 953d 3b86 9d3d 3fb9 9f3d
00000130: 181a 903c 4969 9dbd 2838 053c 4b7e 62bd
00000140: a4b3 a8bd 95d5 a03d cba3 893d 6492 b4bd
00000150: ec86 873c c8f4 73bc 604f 6ebc c7b9 25bd
00000160: 6639 0b3d d06f 56bd 62b8 043d fe15 373d
00000170: 2b96 813d cc5e 073d 4529 b3bd 76da 6abd
00000180: 76c5 343d e48c 973c d635 8dbd 0b78 50bd
00000190: 374b aa3d baf2 733d a3db 1dbd 403d b6bc
000001a0: 4d70 acbd 003c d0ba 7751 88bd 67a1 8bbd
000001b0: e095 9fbb e86e 593c 0b44 14bd 5ed3 563d
000001c0: 8f50 5cbd 6540 a43d e61a 783d 88a6 98bd
000001d0: 2436 b4bc 60b0 823b 9049 533c 88bb ab3c
000001e0: 0013 0e3d 507d ad3b 2aa6 30bd 0e50 2b3d
000001f0: 81a4 adbd 2e95 56bd 1842 b5bc 975a 30bd
00000200: 724e fdbc 0c5e 94bd b005 9abc b4c6 9a3c
00000210: 16db 6bbd 00a3 94bb 3595 813d e0de 14bc
00000220: 60fd 203b 80dc f9bb 2c8a 923c ce32 663d
00000230: 4978 ab3d 2eea 653d b9dc ab3d 4077 d1bb
00000240: 129d a2bd 61a2 2bbd 9683 763d 0034 16ba
00000250: 33f3 33bd 9db7 8abd 4668 a9bd 24c8 98bd
00000260: 98de 92bc 4e8b 463d a6bb 433d b094 aebd
00000270: 4ed5 613d 3ba6 8dbd d013 99bc f9cb 12bd
00000280: e477 8bbc d42a 8ebc 0c70 a2bd 884c 9cbd
00000290: 409b 62bc 80d2 953a 0f77 24bd 3261 083d
000002a0: 8fed a2bd c076 c3bb 2131 9f3d 34ac 13bd
000002b0: 0576 a33d 1a1d 033d e65c a3bd 960f 653d
000002c0: e81b 27bc d59d 21bd b1c0 903d e647 92bd
000002d0: e864 1b3c 6099 97bc a944 813d 4c1f ca3c
000002e0: 26f6 2d3d e4b6 ff3c 4c1f aebc 0447 98bc
000002f0: b72c 95bd 262b 443d b3b9 8f3d 42b7 773d
00000300: cc5f 7fbd d02c 813b a236 7fbd eb4b 47bd
00000310: 40f6 52bd 2873 f73c 5dbe 57bd 00c2 fcba
00000320: 40af 733b e260 693d 0ed6 88bd 428b 78bd
00000330: d038 52bd 2a67 7d3d e623 02bd 11b0 983d
00000340: 7aea 023d c05f 373c 807b 2cba 0023 8fbc
00000350: d8b1 353c d856 a5bc 80ce 22ba 40c6 383c
00000360: 2098 8dbd 7fc1 3dbd fb2b 923d d8e7 92bd
00000370: 10f9 cfbb 4312 b33d 22c8 023d c001 243b
00000380: 87df 9cbd 9258 333d c4ef 80bd 288a cdbc
00000390: 94f0 f2bc 1874 56bc 0072 7d3a 5d4e 953d
000003a0: 30c9 343c 4123 a23d aa76 5d3d cae2 64bd
000003b0: 3660 223d 78ec 7fbd eb70 19bd b4f7 d43c
000003c0: a815 ef3c 47ce 873d 8c17 e9bc 005e 1439
000003d0: d262 3a3d f80f afbd 9bdf 823d 5fb0 95bd
000003e0: 80ac 9f3a e835 76bc 0dad 3ebd 7067 3f3c
000003f0: 33b0 953d 74a9 d3bc b2f0 56bd 5de5 05bd

temporal_emb_converter.weight_hh_l0 f4 [512, 128]
-0.024523757 -0.032950796 0.02225168 0.031350784 -0.04318404 0.007813379 0.05122421 -0.008794352
0.026899569 -0.021318115 0.03098008 -0.06402801 -0.051974893 -0.044865087 0.08122986 -0.0237839
-0.00024133176 -0.042823758 0.0882372 0.086326264 -0.06666131 -0.07165377 -0.066997744 -0.00042627007
-0.022530533 -0.05785421 -0.031702437 0.016699284 -0.046182092 0.019585311 -0.02026885 -0.042829752
0.012143277 0.07267805 -0.05975753 0.0041042566 -0.03259477 0.086736046 -0.083859615 -0.08473448
0.08709655 -0.05592242 0.016946107 -0.0076284558 -0.018619627 -0.019741341 0.05616554 0.0042246953
-0.08605618 -0.052180957 -0.030131616 0.04447847 -0.057199076 0.08334311 -0.019686677 -0.015871182
0.0692574 0.04442466 0.07496395 0.05112774 -0.026812948 -0.05864323 -0.0065763593 0.07315352
-0.029664882 -0.081968695 0.036232896 0.08604353 -0.025162682 -0.073187634 -0.08017351 0.022150062
-0.0066927373 -0.044634987 0.017866105 0.03356626 0.07029692 0.06862313 -0.013230294 -0.07793794
-0.079869755 0.08252727 0.039072536 0.038529135 -0.07647546 0.081849 0.08373409 0.07980233
-0.074563086 -0.03335099 -0.060790308 0.083700724 -0.037978705 -0.0403541 0.046307795 -0.040887773
-0.043533217 -0.00773146 -0.008495845 -0.06885262 0.07368655 -0.038990017 0.03135266 0.076878734
0.0445757 0.01251401 0.07520584 0.011881709 -0.040893454 0.083615325 0.0209198 -0.08623882
-0.02516342 -0.06020727 0.07749475 -0.014596969 -0.08056818 -0.0055563897 0.055509023 0.02296333
0.02794879 0.008208908 0.03295283 -0.021535993 -0.035160903 -0.082617335 -0.066586204 0.038307734
-0.05233592 0.0126807615 0.028212808 0.0062582344 -0.057306565 0.08452829 -0.051397774 0.072699465
-0.07031366 -0.021261685 0.048080496 -0.03611377 0.074250005 -0.060825013 -0.074226014 -0.039855998
0.014288016 0.081384085 -0.042196676 0.03161017 -0.022159576 -0.019168101 0.06499226 -0.06849972
0.009388022 0.08312122 -0.0121456385 0.06862808 -0.027219795 0.07114927 -0.08550073 -0.012738854
-0.015525095 0.028645337 0.03467717 0.067866065 -0.0131686255 -0.0035050511 0.06052933 -0.023915514
0.0774842 -0.058850035 -0.009564489 -0.0047474205 0.03943976 0.060429 -0.0140098855 -0.07322803
0.043795742 0.026439764 0.03550554 -0.05452391 0.056886353 0.08371746 0.0076695755 -0.082559
0.062047727 -0.06553565 0.020318016 0.012844399 -0.041368976 0.030776426 -0.079057425 0.020131283
-0.056033876 -0.009557754 0.011369288 0.07530197 -0.042171873 0.056624763 -0.011228308 -0.04197808
-0.07696854 -0.08109793 0.086321004 -0.02204401 0.0044148937 0.023963168 0.0600804 0.075437166
0.07168447 -0.06548543 -0.014161296 -0.05230271 -0.050500836 0.020966336 0.082965545 -0.070808254
0.053493015 -0.045826416 -0.017215773 0.0701601 -0.019990817 0.008048266 -0.06178633 0.07523977
-0.01142595 -0.06464639 0.025881022 -0.06284565 -0.0701368 0.005384542 0.07007813 -0.025012486
0.04160147 0.07595398 0.058624543 -0.046365082 -0.009689115 -0.027814474 -0.0710751 3.6522746e-05
0.0665065 0.07446856 0.0082466975 0.02007503 -0.03826523 0.06671927 -0.036779143 -0.061399214
0.013611227 0.052978687 -0.07969019 0.0799002 0.03179604 -0.061926007 -0.019039512 0.07668396
00000000: 0ce6 c8bc 6af7 06bd 2849 b63c ae69 003d
00000010: bfe1 30bd b003 003c 7ad0 513d 3016 10bc
00000020: 7c5c dc3c 54a3 aebc f0c9 fd3c 1e21 83bd
00000030: a0e3 54bd 74c4 37bd d75b a63d 74d6 c2bc
00000040: 000e 7db9 f767 2fbd b5b5 b43d d3cb b03d
00000050: ba85 88bd 36bf 92bd 1d36 89bd 007d dfb9
00000060: f491 b8bc 89f8 6cbd 6ada 01bd f0cc 883c
00000070: 6f29 3dbd 6071 a03c dc0a a6bc 406e 2fbd
00000080: 98f4 463c 3bd8 943d 50c4 74bd 007d 863b
00000090: 1882 05bd aba2 b13d 97be abbd 4589 adbd
000000a0: ad5f b23d e80e 65bd 90d2 8a3c 20f8 f9bb
000000b0: 3088 98bc 98b8 a1bc d60d 663d 506f 8a3b
000000c0: 393e b0bd b3bb 55bd 94d6 f6bc 0e2f 363d
000000d0: 9449 6abd cbaf aa3d f445 a1bc 4804 82bc
000000e0: d3d6 8d3d a2f6 353d b386 993d 526b 513d
000000f0: d4a6 dbbc e233 70bd 807e d7bb 83d1 953d
00000100: c403 f3bc 34df a7bd f268 143d 9737 b03d
00000110: f821 cebc 66e3 95bd 0232 a4bd 0c74 b53c
00000120: c04e dbbb 2dd3 36bd f05b 923c c67c 093d
00000130: d5f7 8f3d 498a 8c3d e0c3 58bc ed9d 9fbd
00000140: c192 a3bd 0f04 a93d 860a 203d bad0 1d3d
00000150: 2a9f 9cbd 73a0 a73d c77c ab3d 676f a33d
00000160: 88b4 98bd 0c9b 08bd 42ff 78bd 496b ab3d
00000170: 8f8f 1bbd 574a 25bd 3ead 3d3d f079 27bd
00000180: e34f 32bd 3058 fdbb 2832 0bbc 9a02 8dbd
00000190: f9e8 963d ffb3 1fbd a66b 003d 9972 9d3d
000001a0: 0295 363d 9007 4d3c 8505 9a3d 80ab 423c
000001b0: e57f 27bd 833e ab3d 0060 ab3c fa9d b0bd
000001c0: 8423 cebc e69b 76bd 91b5 9e3d 2028 6fbc
000001d0: ee00 a5bd 6012 b6bb 6e5d 633d 981d bc3c
000001e0: dcf4 e43c a87e 063c 8cf9 063d 406c b0bc
000001f0: e104 10bd 4733 a9bd 595e 88bd 92e8 1c3d
00000200: 315e 56bd f8c2 4f3c 8c1e e73c e011 cd3b
00000210: 4aba 6abd 2b1d ad3d 7986 52bd 75e3 943d
00000220: 9c00 90bd fc2c aebc 0ef0 443d 08ec 13bd
00000230: 6310 983d a623 79bd cf03 98bd 0b40 23bd
00000240: 4818 6a3c b3ac a63d 6cd6 2cbd aa79 013d
00000250: 0088 b5bc 6c06 9dbc a91a 853d 9549 8cbd
00000260: 38d0 193c 753b aa3d 80fe 46bc e18c 8c3d
00000270: 0cfc debc b5b6 913d 021b afbd a0b6 50bc
00000280: f85c 7ebc a0a9 ea3c a609 0e3d 5dfd 8a3d
00000290: 38c1 57bc 00b5 65bb 9aed 773d 78ea c3bc
000002a0: 09b0 9e3d bc0c 71bd 60b4 1cbc 4090 9bbb
000002b0: 968b 213d 6684 773d b889 65bc 94f8 95bd
000002c0: 2a63 333d 3498 d83c 426e 113d 7754 5fbd
000002d0: aa01 693d 0f74 ab3d 1051 fb3b b114 a9bd
000002e0: c225 7e3d 8e37 86bd f871 a63c 5071 523c
000002f0: 8472 29bd d81e fc3c dce8 a1bd 5cea a43c
00000300: c783 65bd 2098 1cbc 4046 3a3c eb37 9a3d
00000310: 6abc 2cbd 5eef 673d f0f6 37bc 35f1 2bbd
00000320: afa1 9dbd ac16 a6bd 11c9 b03d a495 b4bc
00000330: d0aa 903b 684e c43c de16 763d cd7e 9a3d
00000340: 4fcf 923d 3a1d 86bd c804 68bc 5e3b 56bd
00000350: f7d9 4ebd 98c1 ab3c d7e9 a93d eb03 91bd
00000360: 7e1b 5b3d 7bb4 3bbd 1808 8dbc 19b0 8f3d
00000370: c8c3 a3bc e0dc 033c aa13 7dbd 4f17 9a3d
00000380: e833 3bbc 5465 84bd 7004 d43c 38b5 80bd
00000390: e2a3 8fbd d070 b03b 1f85 8f3d fce6 ccbc
000003a0: 4e66 2a3d c38d 9b3d 4a20 703d 50e9 3dbd
000003b0: 18bf 1ebc 2edb e3bc d28f 91bd 0030 1938
000003c0: 8f34 883d f982 983d 281d 073c 6474 a43c
000003d0: 00bc 1cbd 1da4 883d baa5 16bd be7d 7bbd
000003e0: a001 5f3c 2e00 593d 9c34 a3bd b7a2 a33d
000003f0: 903c 023d 20a6 7dbd c0f8 9bbc 7b0c 9d3d

temporal_emb_converter.bias_ih_l0 f4 [512]
0.046510242 0.06927728 0.05340772 0.081057854 -0.06618634 0.050735317 0.077580266 0.027993694
-0.045564514 -0.004217036 -0.051177368 -0.05303165 -0.066450834 -0.047178328 0.08142028 -0.061996106
-0.04908874 -0.026860345 0.043631174 -0.02146358 0.011586994 -0.020033047 -0.08118098 -0.087762415
0.05262447 0.039349668 -0.04978393 0.025990255 -0.074086584 0.08605725 0.054247208 0.053184606
-0.011375204 -0.0032985508 0.01631236 0.072496034 -0.053721678 -0.0135123655 -0.067007534 0.05952985
-0.0431181 -0.05893314 -0.028492618 -0.08580908 0.06507223 0.0010817796 -0.04396458 -0.08265691
0.060166903 -0.044827547 -0.06054757 0.0874983 0.06646367 0.028956547 0.015933879 0.05214674
0.002473332 0.04796774 0.0031523556 -0.039119534 -0.06863662 -0.003796123 -0.025481403 0.058454625
-0.08571101 0.056848727 0.08412502 -0.05963912 0.04927244 -0.04840262 0.051750757 0.06646184
-0.061320826 0.051095776 -0.06271502 -0.0457193 0.004751183 -0.00856562 0.03422445 0.039371736
0.06539046 0.06995132 -0.08087336 -0.0072509125 -0.07333632 -0.049429182 -0.07132533 0.020787857
0.06453996 -0.023182735 0.010126971 0.071285166 0.061294265 -0.011460669 0.06391368 -0.003330201
-0.027530216 0.044739194 0.058493577 0.052045353 -0.03081178 -0.06309476 0.0601848 0.0020312816
-0.025358006 -0.042873282 -8.697063e-05 -0.04202044 0.00123211 -0.06392284 -0.063477635 -0.0835482
0.019887537 0.0036747232 -0.047060326 -0.027908884 0.0092200935 -0.061565377 -0.025816917 0.060478173
0.034769833 -0.00608062 -0.016979493 0.01629714 0.06808283 -0.08430616 -0.04075163 -0.07299502
-0.040793587 -0.07471988 0.04410734 -0.024644159 0.021537617 -0.01213669 0.013674103 -0.03246462
0.055062123 -0.048733335 0.055608593 -0.08645369 0.03474669 -0.00013487041 0.0066501647 -0.025173858
0.031718045 -0.087885946 0.08362547 -0.0042324886 -0.036472734 -0.026912384 0.011591956 0.06816644
0.08742892 -0.00341513 -0.05936944 0.06272512 0.068438165 0.025540896 -0.046159703 0.03718034
0.07728014 -0.06861187 -0.08731296 -0.0760453 -0.08784521 0.0041197166 0.07303587 0.044100635
-0.06872846 -0.014342025 -0.08107691 -0.032593727 -0.024491936 -0.0740316 0.056187786 0.020790748
0.043883838 -0.016566284 0.087708734 0.008435525 0.071414776 -0.003683053 -0.07340498 -0.07458408
0.028845146 0.04960435 0.012378097 0.08404764 -0.083127595 0.06628246 -0.020970248 -0.08127335
0.0061272904 -0.07146003 0.0554673 0.0038732812 -0.044019707 0.020625763 0.05622285 0.049037777
-0.060564853 0.027599841 -0.082989894 -0.040014714 0.08329991 -0.059765927 0.010905772 0.07182781
0.035135023 0.015195869 0.015756398 -0.016552351 0.052695297 0.079088114 0.07585444 -0.019969828
-0.0048924163 0.036437184 -0.008203998 -0.01720722 0.05462914 -0.027827341 0.014890261 0.062069364
0.080140896 0.07394902 0.03805188 -0.058660403 0.022191644 0.015692346 0.053314112 -0.06883545
-0.07582335 -0.08050746 -0.031899042 0.0059940293 0.05040533 -0.031742204 -0.051806696 0.06537273
-0.07726696 0.04525312 -0.085809074 0.06684413 0.042608224 0.087405734 -0.035458744 0.06001953
-0.013259843 0.011983402 0.039505742 0.040614016 0.024528012 -0.052954376 -0.058802262 0.055209823
00000000: 8681 3e3d 3fe1 8d3d 0ec2 5a3d a901 a63d
00000010: b48c 87bd d6cf 4f3d 67e2 9e3d 0853 e53c
00000020: dba1 3abd 102f 8abb 5c9f 51bd b737 59bd
00000030: 6017 88bd 103e 41bd adbf a63d a1ef 7dbd
00000040: 4611 49bd 3a0a dcbc 9ab6 323d 64d4 afbc
00000050: 60d7 3d3c 581c a4bc 3742 a6bd c8bc b3bd
00000060: c28c 573d 1e2d 213d 3cea 4bbd 84e9 d43c
00000070: b5ba 97bd c93e b03d 5232 5e3d 1ad8 593d
00000080: 105f 3abc 802c 58bb 80a1 853c cd78 943d
00000090: 430b 5cbd f862 5dbc 3f3b 89bd 92d5 733d
000000a0: 9b9c 30bd e063 71bd 5a69 e9bc acbc afbd
000000b0: 9744 853d 80ca 8d3a 3414 34bd 0748 a9bd
000000c0: 9271 763d 179d 37bd bb00 78bd 4f32 b33d
000000d0: 1b1e 883d 4836 ed3c c487 823c d297 553d
000000e0: a017 223b d279 443d c097 4e3b ce3b 20bd
000000f0: 5b91 8cbd 60c8 78bb 60be d0bc 1e6e 6f3d
00000100: 4189 afbd 36da 683d bd49 ac3d 2648 74bd
00000110: e6d1 493d d341 46bd 9af8 533d 251d 883d
00000120: 8c2b 7bbd ce49 513d bb70 80bd 2944 3bbd
00000130: d0af 9b3b d056 0cbc f02e 0c3d 4244 213d
00000140: 6feb 853d a342 8f3d efa0 a5bd 1099 edbb
00000150: 5a31 96bd 4176 4abd 0413 92bd 4c4b aa3c
00000160: 872d 843d b8e9 bdbc 98eb 253c f5fd 913d
00000170: b20f 7b3d 88c5 3bbc 2de5 823d 803f 5abb
00000180: 0c87 e1bc 7240 373d f696 6f3d 822d 553d
00000190: fc68 fcbc d337 81bd 5684 763d 401f 053b
000001a0: 98bb cfbc e59b 2fbd 0064 b6b8 a01d 2cbd
000001b0: c07e a13a fae9 82bd 9000 82bd 521b abbd
000001c0: 30eb a23c a0d3 703b 54c2 40bd 2ca1 e4bc
000001d0: e00f 173c fa2b 7cbd 007e d3bc f6b7 773d
000001e0: d06a 0e3d f03f c7bb 9418 8bbc 9481 853c
000001f0: 036f 8b3d b5a8 acbd 2eeb 26bd 6a7e 95bd
00000200: 2d17 27bd bd06 99bd e6a9 343d 8ce2 c9bc
00000210: a86f b03c f8d8 46bc 5809 603c 9ff9 04bd
00000220: d288 613d 9b9c 47bd d6c5 633d a20e b1bd
00000230: 8c52 0e3d 006c 0db9 a0e9 d93b 6839 cebc
00000240: c8ea 013d 8cfd b3bd d543 ab3d b0b0 8abb
00000250: 6f64 15bd 5c77 dcbc 30ec 3d3c d99a 8b3d
00000260: ef0d b33d 60d0 5fbb 5f2d 73bd 0776 803d
00000270: 4f29 8c3d 243b d13c f511 3dbd 6a4a 183d
00000280: 0d45 9e3d 6184 8cbd 23d1 b2bd a3bd 9bbd
00000290: 31e8 b3bd b0fe 863b d593 953d dea2 343d
000002a0: 82c1 8cbd d0fa 6abc a70b a6bd 0081 05bd
000002b0: 50a3 c8bc e19d 97bd 2a25 663d 5c51 aa3c
000002c0: 8abf 333d 04b6 87bc a3a0 b33d 2835 0a3c
000002d0: e941 923d 605f 71bb 5a55 96bd 8abf 98bd
000002e0: a84c ec3c ee2d 4b3d 80cd 4a3c 2b21 ac3d
000002f0: cd3e aabd 19bf 873d ccc9 abbc a472 a6bd
00000300: 70c7 c83b a359 92bd ae31 633d e0d6 7d3b
00000310: 024e 34bd 5cf7 a83c ee49 663d d6db 483d
00000320: da12 78bd 1019 e23c 9bf6 a9bd 78e6 23bd
00000330: 2599 aa3d 1ecd 74bd 20ae 323c 751a 933d
00000340: bee9 0f3d 18f8 783c 9013 813c cc98 87bc
00000350: 06d7 573d f3f8 a13d 9359 9b3d c497 a3bc
00000360: 9050 a0bb 283f 153d 106a 06bc 28f6 8cbc
00000370: cec2 5f3d 2af6 e3bc 48f6 733c 723c 7e3d
00000380: e920 a43d 9572 973d 4adc 1b3d e445 70bd
00000390: 40cb b53c 3c8d 803c e65f 5a3d 9af9 8cbd
000003a0: 4649 9bbd 18e1 a4bd 92a8 02bd 9069 c43b
000003b0: d275 4e3d 1d04 02bd 4233 54bd 23e2 853d
000003c0: 243e 9ebd 565b 393d abbc afbd 93e5 883d
000003d0: f685 2e3d c701 b33d 303d 11bd 0ad7 753d
000003e0: d03f 59bc 0856 443c c6d0 213d e25a 263d
000003f0: f8ee c83c b0e6 58bd a4da 70bd b223 623d

temporal_emb_converter.bias_hh_l0 f4 [512]
0.04073877 0.0071803257 0.0020547137 0.06780141 -0.0029485747 0.010243095 -0.0065454617 0.08381487
-0.08581596 0.032775633 -0.043122895 0.010467842 0.061863102 0.054448374 0.045398988 0.030997321
0.060302295 0.08660389 0.08147443 -0.016453937 -0.06930366 -0.01260256 0.071136065 0.057349823
-0.059711978 0.028865531 -0.040539272 0.073280014 0.086555965 -0.048942804 -0.031031333 -0.02850324
0.03782638 0.06463853 -0.024478383 -0.016624726 0.011915788 0.037616484 0.027417645 0.056241475
0.06278073 0.02792114 -0.051796082 0.009934835 -0.05129502 0.045197852 0.088243596 0.038509183
0.03885249 -0.067768864 0.05875229 -0.051254317 0.021913692 0.045158647 0.059185676 -0.006893769
-0.038875893 0.066754155 -0.04363572 0.05602462 0.087284096 -0.0014942139 0.026962876 0.07359993
-0.04189221 0.016786277 -0.08794243 -0.029859178 0.044176005 0.046331085 0.046909668 0.070510335
0.037759893 0.05739657 -0.03889172 -0.010773279 0.06022034 -0.016143277 0.050757654 0.032725394
0.07963636 0.08018548 0.080043696 0.07018123 0.059370704 0.04105369 -0.030896854 0.040575825
-0.07225766 -0.024489626 -0.0052738637 -0.03260519 -0.042226493 0.0645226 0.032372944 0.06916381
0.05548101 -0.04860637 -0.005153686 -0.06949508 -0.009409599 -0.025862262 0.08422976 -0.07411143
0.027721763 -0.07196598 -0.0523078 0.06694927 -0.00029685348 -0.0724138 -0.016418323 0.02657006
-0.06500786 0.039632387 -0.013373613 0.07807838 -0.06178398 0.0012078434 -0.029463954 -0.054688483
0.018668473 -0.0868813 -0.0026632175 0.04436133 -0.029882126 -0.014687389 -0.038888253 -0.07425827
-0.060620476 0.049021117 -0.07667314 0.017656654 0.01859127 -0.06695088 -0.08528596 -0.025517367
-0.0059667006 -0.03255178 0.011138044 -0.012834936 -0.026337247 0.041964702 0.019904628 -0.0820635
-0.0823727 0.03359346 -0.07370876 -0.03663035 0.045962878 0.035047494 0.030992284 0.012462057
-0.031212766 0.083804466 0.05616475 0.08453857 0.020523198 -0.0232841 0.006896086 0.047452353
0.0045792237 -0.0010781586 0.02021157 -0.053169787 0.035050467 0.06430685 0.019744404 -0.08508542
-0.049722333 -0.037687942 -0.06916636 -0.041826375 0.006814681 0.086182274 0.01253771 0.03514362
0.024674863 0.056964435 0.03425075 -0.059668146 0.026450269 0.07417973 0.084908195 0.05935637
-0.057993576 -0.052596632 0.035122894 0.06906954 -0.05022487 0.069548674 -0.027730677 0.057928763
0.0018543005 0.04383122 -0.08659979 -0.041425977 -0.062876284 0.069232576 -0.084337726 0.059538223
-0.02010195 0.04162223 0.057517238 0.056363143 -0.054535292 0.047910444 -0.06739872 -0.02353122
-0.07368871 0.034086317 -0.08371622 0.07567478 -0.025641404 -0.029728383 -0.059770606 0.033403642
-0.015677609 -0.018855184 0.019977733 -0.07255247 0.042665236 -0.018860675 0.010943152 0.010336533
0.054603495 0.01061365 0.024736546 -0.08639943 0.00030368567 0.051125385 0.03296697 -0.008191504
-0.00618504 0.061976723 0.027969278 -0.045738306 -0.06783374 0.017014913 0.0821174 0.08009324
-0.07242562 0.001322411 -0.085288644 -0.04753234 -0.07186504 -0.016819946 0.076507784 0.036412567
0.009269349 0.01891227 -0.06912708 0.0006437078 0.06390502 0.018422008 -0.014439829 0.08024811
00000000: b2dd 263d f048 eb3b 60a8 063b 77db 8a3d
00000010: e03c 41bb a8d2 273c 507b d6bb 21a7 ab3d
00000020: 47c0 afbd be3f 063d a2a1 30bd 5081 2b3c
00000030: 2a64 7d3d 4205 5f3d 4af4 393d 18ee fd3c
00000040: 8aff 763d 615d b13d 11dc a63d 68ca 86bc
00000050: 14ef 8dbd f87a 4ebc c9af 913d a6e7 6a3d
00000060: 8c94 74bd 6877 ec3c 820c 26bd d513 963d
00000070: 4144 b13d 4078 48bd 6c35 febc a07f e9bc
00000080: d6ef 1a3d 3561 843d e486 c8bc 9430 88bc
00000090: 703a 433c be13 1a3d f89a e03c 765d 663d
000000a0: 2f93 803d e0ba e43c 2128 54bd b8c5 223c
000000b0: ba1a 52bd 6221 393d 0fb9 b43d cebb 1d3d
000000c0: ca23 1f3d 67ca 8abd 3ea6 703d 0cf0 51bd
000000d0: 5884 b33c 46f8 383d ae6c 723d 20e5 e1bb
000000e0: 543c 1fbd 67b6 883d 5ebb 32bd 127a 653d
000000f0: 01c2 b23d 80d9 c3ba 40e1 dc3c 8fbb 963d
00000100: 2a97 2bbd 6083 893c 291b b4bd 3c9b f4bc
00000110: e6f1 343d aac5 3d3d 5a24 403d b967 903d
00000120: 1eaa 1a3d aa18 6b3d ed4c 1fbd 6882 30bc
00000130: 9aa9 763d e83e 84bc 42e7 4f3d 100b 063d
00000140: 6318 a33d 4938 a43d f3ed a33d 2dbb 8f3d
00000150: b22e 733d ea27 283d 661b fdbc d632 263d
00000160: d3fb 93bd 789e c8bc 60d0 acbb 058d 05bd
00000170: b0f5 2cbd 6d24 843d 7e99 043d c1a5 8d3d
00000180: 0e40 633d 7917 47bd 40e0 a8bb 7053 8ebd
00000190: b82a 1abc 18dd d3bc a780 ac3d bcc7 97bd
000001a0: c018 e33c e662 93bd b440 56bd b31c 893d
000001b0: 00a3 9bb9 b04d 94bd b87f 86bc 74a9 d93c
000001c0: d722 85bd 9255 223d 001d 5bbc 8fe7 9f3d
000001d0: 3311 7dbd 8050 9e3a 645e f1bc 0801 60bd
000001e0: a0ee 983c d3ee b1bd 6089 2ebb 3ab4 353d
000001f0: 5ccb f4bc 60a3 70bc 4a49 1fbd b814 98bd
00000200: 2d4d 78bd 5eca 483d cf06 9dbd b0a4 903c
00000210: b84c 983c 8b1d 89bd 68aa aebd cc09 d1bc
00000220: 5084 c3bb 0455 05bd 587c 363c a049 52bc
00000230: 36c1 d7bc 2ee3 2b3d 080f a33c e910 a8bd
00000240: 05b3 a8bd 4c99 093d 9ef4 96bd b509 16bd
00000250: 9243 3c3d f68d 0f3d 88e3 fd3c a82d 4c3c
00000260: eab1 ffbc ada1 ab3d 020d 663d 8f22 ad3d
00000270: 4420 a83c 4cbe bebc 90f8 e13b 665d 423d
00000280: 500d 963b 0051 8dba bc92 a53c 90c8 59bd
00000290: 1491 0f3d 4fb3 833d 04bf a13c 4441 aebd
000002a0: a5a9 4bbd ac5e 1abd 18a7 8dbd 2252 2bbd
000002b0: b04d df3b 5580 b03d f86a 4d3c c2f2 0f3d
000002c0: f022 ca3c 8a53 693d 844a 0c3d 9666 74bd
000002d0: 3cae d83c 8beb 973d 59e4 ad3d aa1f 733d
000002e0: ac8a 6dbd 916f 57bd 06dd 0f3d 5574 8d3d
000002f0: 98b8 4dbd 896f 8e3d 722b e3bc b646 6d3d
00000300: 000c f33a 5e88 333d 3b5b b1bd 49ae 29bd
00000310: 48c5 80bd cfc9 8d3d 42b9 acbd 5ade 733d
00000320: d8ac a4bc 127c 2a3d 3297 6b3d 0add 663d
00000330: 6660 5fbd be3d 443d 5708 8abd 8cc4 c0bc
00000340: 1bea 96bd 189e 0b3d 6973 abbd 61fb 9a3d
00000350: ec0d d2bc f088 f3bc 06d2 74bd 42d2 083d
00000360: 546e 80bc 3076 9abc 58a8 a33c 6496 94bd
00000370: bec1 2e3d b481 9abc e84a 333c 905a 293c
00000380: eaa7 5f3d e0e4 2d3c 4ca4 ca3c 2ff2 b0bd
00000390: 0038 9f39 da68 513d 6008 073d a835 06bc
000003a0: e0ab cabb 4edb 7d3d d41f e53c 1758 3bbd
000003b0: 6aec 8abd dc62 8b3c 2b2d a83d ed07 a43d
000003c0: e253 94bd c054 ad3a d0ab aebd 45b1 42bd
000003d0: fa2d 93bd fcc9 89bc 1db0 9c3d 5825 153d
000003e0: 78de 173c e8ed 9a3c 8092 8dbd 80be 283a
000003f0: a3e0 823d c0e9 963c 0895 6cbc 1f59 a43d

temporal_emb_converter.weight_ih_l1 f4 [512, 128]
0.0070216656 -0.030797187 0.050995953 -0.008880764 -0.082799844 -0.008108959 0.034758106 0.08583381
-0.02667591 0.027653366 -0.08833159 -0.085360035 0.045670353 0.040929727 0.021925487 0.08292066
0.024337687 -0.044474576 -0.074393645 -0.019802034 0.04816001 0.0112629235 0.059379302 -0.07996322
0.06574906 0.04761847 -0.0805776 0.021057494 0.051728494 0.003972709 0.043636985 -0.06389322
0.029600017 -0.03369243 0.025086 -0.05312965 0.040508635 0.080855675 0.052461408 -0.07342337
0.08744029 0.049761318 -0.05573943 -0.06306286 -0.06998623 -0.024044469 -0.029699713 0.027200103
0.041771688 -0.03956924 -0.0824819 0.07046788 0.08551402 -0.054402784 -0.034509953 0.02752605
-0.071994185 -0.0017821565 -0.044920776 0.05575349 -0.03507445 -0.08393963 0.00029935688 0.02414082
-0.023259468 -0.0135344565 -0.028747458 0.018367968 -0.017941386 -0.026275527 0.052715324 -0.06033355
0.021205641 0.027430572 0.0031471476 -0.007950284 -0.07358989 0.06770482 -0.07490087 -0.0059628114
0.060656317 0.06222651 -0.07435555 -0.02588167 0.0801158 -0.024774753 -0.030649304 -0.06259912
-0.047052268 -0.070316054 -0.04906522 -0.03297879 -0.029585835 0.075136565 -0.081663005 -0.056095272
-0.049843453 0.04403936 -0.036673512 0.051606156 0.0030426458 -0.010110587 0.014200643 -0.08349827
0.007627338 0.03694787 -0.030379478 0.006254874 0.040002264 0.06272256 0.06702281 0.051899903
0.0062645003 -0.037401807 -0.0062538236 0.08739487 0.044670455 0.04460951 0.02047667 0.083390854
-0.05341816 -0.010179773 0.033785947 0.042164914 0.007352799 0.062405713 -0.066896066 0.0861193
0.045030005 -0.08637219 0.055886514 -0.04976743 -0.060281806 -0.022847995 -0.04066252 0.011343367
0.03477352 -0.014016911 0.035078287 -0.06889728 -0.052940298 0.06468444 0.07479992 0.020153865
-0.060056098 -0.04183419 -0.044973403 0.025241032 0.06821928 0.06072233 -0.0357901 0.034038037
0.066184066 -0.041095767 0.040825926 0.048005335 -0.078299716 0.065553315 0.06627906 0.015139639
-0.015337139 -0.083185285 -0.028838433 0.07994265 0.0013217479 -0.08488494 0.0030644014 0.054476567
0.014357485 0.071198605 0.020965226 0.059210204 0.06921693 -0.08575117 0.03133791 0.08110858
0.030090518 0.019628525 0.07425157 -0.0024033263 0.023676328 0.025733776 -0.07752927 -0.02460318
-0.04210505 0.067639746 -0.05382593 -0.019098759 0.027210735 -0.04414009 -0.05733549 0.008446895
-0.03226649 0.081067555 -0.057936586 -0.018698975 -0.051803775 0.07403239 -0.07224013 0.03806434
0.02446004 -0.05478986 -0.08052064 -0.04074398 -0.05503078 -0.005502805 -0.041839775 0.06133864
-0.030937977 0.064718895 0.043010063 0.013316236 0.031088032 0.062271588 0.032387853 0.062414207
0.02799242 -0.0403679 -0.08510861 -0.027713079 0.021250986 -0.032470416 -0.05240968 -0.056562006
-0.08513158 0.0038547367 -0.08777053 -0.075457454 0.0011430457 -0.07383667 -0.019093968 -0.013368145
-0.022143446 0.0734374 0.04001703 0.043159254 0.03362409 0.01204329 -0.06257475 0.034789547
-0.0443853 -0.043956663 -0.04654464 0.020795561 -0.056338366 0.020197876 0.058241136 -0.054831773
-0.05161289 -0.04385324 -0.0085504055 0.08276486 -0.02372951 -0.034825824 0.035020225 -0.008944951
00000000: 0016 e63b 624a fcbc 22e1 503d a080 11bc
00000010: f792 a9bd 70db 04bc 845e 0e3d a3c9 af3d
00000020: 7087 dabc 5089 e23c 31e7 b4bd 3ed1 aebd
00000030: d610 3b3d eea5 273d 149d b33c 4fd2 a93d
00000040: d45f c73c f92a 36bd b25b 98bd e037 a2bc
00000050: 6e43 453d 2088 383c b637 733d c2c3 a3bd
00000060: 71a7 863d 960b 433d de05 a5bd c480 ac3c
00000070: 42e1 533d 802d 823b b2bc 323d 73da 82bd
00000080: bc7b f23c 1301 0abd 2881 cd3c 7a9e 59bd
00000090: 62ec 253d a997 a53d c6e1 563d fe5e 96bd
000000a0: e513 b33d 86d2 4b3d 074f 64bd 1a27 81bd
000000b0: f154 8fbd e8f8 c4bc d04c f3bc c0d2 de3c
000000c0: ca18 2b3d 5b13 22bd 45ec a8bd 7751 903d
000000d0: f921 af3d 74d5 5ebd 4f5a 0dbd 507e e13c
000000e0: b071 93bd 4097 e9ba d9fe 37bd c65d 643d
000000f0: 3aaa 0fbd 8ae8 abbd 00f3 9c39 f8c2 c53c
00000100: a48a bebc a0bf 5dbc ca7f ebbc 6c78 963c
00000110: d0f9 92bc c63f d7bc 06ec 573d 5020 77bd
00000120: 74b7 ad3c 14b6 e03c 6040 4e3b e841 02bc
00000130: 4cb6 96bd d3a8 8a3d a165 99bd b063 c3bb
00000140: c272 783d 3ae1 7e3d b947 98bd cc05 d4bc
00000150: c113 a43d 6cf4 cabc 4014 fbbc f833 80bd
00000160: e1b9 40bd dd01 90bd 9df8 48bd c514 07bd
00000170: fe5d f2bc 33e1 993d ef3e a7bd 28c4 65bd
00000180: a628 4cbd 9e62 343d f736 16bd fa60 533d
00000190: 2067 473b e0a6 25bc d0a9 683c 2401 abbd
000001a0: c0ee f93b a656 173d 62de f8bc b0f5 cc3b
000001b0: 6ad9 233d af74 803d 4143 893d fe94 543d
000001c0: 7046 cd3b a332 19bd e0ec ccbb 15fc b23d
000001d0: 5ef8 363d 76b8 363d b0be a73c d3c8 aa3d
000001e0: 00cd 5abd 10c9 26bc 2263 0a3d 1eb5 2c3d
000001f0: c0ef f03b 229d 7f3d ce00 89bd 515f b03d
00000200: 6271 383d e7e3 b0bd 42e9 643d efd8 4bbd
00000210: 0eea 76bd b82b bbbc be8d 26bd 88d9 393c
00000220: ae6e 0e3d 30a7 65bc 40ae 0f3d 041a 8dbd
00000230: edd7 58bd 4779 843d b330 993d b819 a53c
00000240: 62fd 75bd 545a 2bbd 0836 38bd 48c6 ce3c
00000250: 8db6 8b3d fab7 783d a498 12bd 786b 0b3d
00000260: 838b 873d 0954 28bd 1639 273d 3ea1 443d
00000270: 9a5b a0bd d140 863d 51bd 873d 400c 783c
00000280: a048 7bbc 0c5d aabd 943e ecbc f9b8 a33d
00000290: 803e ad3a 28d8 adbd 20d4 483b d222 5f3d
000002a0: a83b 6b3c 93d0 913d 44bf ab3c 6686 723d
000002b0: 9bc1 8d3d 4f9e afbd 2e5c 003d 411c a63d
000002c0: 6480 f63c 00cc a03c 3511 983d 2081 1dbb
000002d0: dcf4 c13c a4cf d23c aac7 9ebd 9c8c c9bc
000002e0: 5876 2cbd b586 8a3d 9478 5cbd 0075 9cbc
000002f0: 0ce9 de3c 3dcc 34bd 9ed8 6abd d864 0a3c
00000300: de29 04bd bf06 a63d ea4e 6dbd 982e 99bc
00000310: 3230 54bd 4b9e 973d a2f2 93bd 5ae9 1b3d
00000320: 6c60 c83c 556b 60bd 01e8 a4bd 29e3 26bd
00000330: f567 61bd e050 b4bb 2f60 2bbd 3a3e 7b3d
00000340: a471 fdbc 578b 843d 522b 303d 582c 5a3c
00000350: 54ac fe3c 7e10 7f3d 20a9 043d 0aa6 7f3d
00000360: 5c50 e53c d058 25bd 6c4d aebd 8a06 e3bc
00000370: 8c16 ae3c b3ff 04bd 88ab 56bd 90ad 67bd
00000380: 7759 aebd c09f 7c3b 09c1 b3bd 7089 9abd
00000390: 40d2 953a ae37 97bd f46a 9cbc 1006 5bbc
000003a0: 2c66 b5bc 5966 963d e6e8 233d c2c7 303d
000003b0: 6ab9 093d 3851 453c 3127 80bd 7c7f 0e3d
000003c0: 5ccd 35bd e70b 34bd 98a5 3ebd 745b aa3c
000003d0: 0fc3 66bd 0476 a53c 428e 6e3d 4897 60bd
000003e0: 0a68 53bd 749f 33bd 0017 0cbc 9f80 a93d
000003f0: 6464 c2bc 86a5 0ebd 5e71 0f3d d88d 12bc

temporal_emb_converter.weight_hh_l1 f4 [512, 128]
-0.08060873 -0.0067106634 0.0022868067 -0.012541465 -0.0058217123 0.08638454 -0.029492784 0.03716425
0.055224933 -0.017105035 0.002448298 -0.08511825 0.01957056 0.08565063 0.03316372 0.013636753
0.050682284 0.06647589 -0.02327986 0.035056986 -0.014888488 -0.034125764 0.05446116 0.05477374
0.04841969 -0.050562363 -0.070693985 -0.05285281 0.009824328 -0.08431875 -0.049490303 0.028487317
0.0046072006 -0.042404503 -0.07362426 -0.08628402 0.012185991 0.05281266 -0.07716608 -0.011091657
-0.05376553 0.045821108 0.06244745 0.07743392 -0.08192295 0.06873464 0.02626153 0.05352264
-0.044132482 0.00088879466 -0.07193646 -0.052029558 0.029801533 0.044866093 0.050593935 -0.08521161
-0.042218644 0.023965359 -0.023905985 0.008745946 0.024863228 0.005559057 -0.015009262 -0.052991632
-0.030465081 0.077087544 0.016574375 -0.08044046 -0.010946825 -0.0020163134 0.0493835 0.006848775
-0.08245074 0.07672494 0.05746848 -0.060590815 0.040003262 -0.08769723 0.07513536 0.042522795
0.010151945 0.064739056 -0.07780476 0.06880448 -0.0027206317 0.07241117 -0.01778204 0.047179453
0.013192952 -0.034734536 -0.064123414 0.016624115 0.043606453 0.08269144 -0.05373899 -0.08461299
-0.078657806 0.0016653985 0.047787853 0.014543995 0.05834692 0.07580691 0.037916206 0.017338403
0.01148887 -0.083759286 0.02192995 0.07978218 0.050767593 0.02363959 -0.08306577 0.039739005
0.08441099 -0.05726942 0.033566974 0.0029436797 0.0598144 0.08202673 -0.048564833 -0.060132638
-0.06365162 -0.061243363 -0.061050944 -0.037604094 -0.013396807 -0.04269205 -0.025939435 -0.016349234
0.0101089105 -0.000810273 -0.08082603 0.05313603 -0.032601524 0.0014778972 -0.08370429 0.04525476
-0.02739089 -0.03935931 -0.077262685 -0.02369558 -0.032467254 -0.018124335 -0.04629927 0.048424058
-0.04559323 0.03457403 0.07588815 0.05036684 -0.029188968 -0.08514916 -0.0022178814 0.04842805
-0.021723382 -0.029606339 0.05630959 -0.036408406 -0.06982449 0.04948423 -0.07120545 0.031981505
-0.051881675 0.014864899 -0.010629728 0.011063188 -0.060286216 -0.048705645 0.044609495 0.06564128
-0.0715299 0.00828293 -0.06564558 0.02399145 -0.083704084 0.017494574 0.069555394 -0.08100788
-0.03711545 0.0027177036 -0.007515773 -0.08066853 -0.05868286 0.035800926 -0.028692458 0.012572385
-0.030139074 0.0697084 -0.015969515 0.015171707 0.08339929 -0.028566826 -0.048741437 0.03549865
0.064606525 -0.0013335869 -0.054890327 0.0072765797 0.007754259 0.07595768 -0.015333459 -0.040659234
0.024427786 0.046153 0.049184047 0.027114995 -0.0010784566 0.028530046 0.069616176 0.07980076
0.017249629 0.07944586 -0.025615558 -0.04473887 0.041481607 0.042249136 -0.06287432 -0.08519172
0.043464206 0.0375539 0.08796135 0.08153967 0.0040221065 0.001143299 0.047368594 -0.052752215
-0.03351295 0.037233345 -0.023973294 0.0767063 -0.005763583 0.04277303 -0.03770121 -0.02996463
0.046354778 0.08539242 -0.08594807 0.009886324 0.009431988 -0.056668513 -0.053063102 -0.07698257
-0.061899517 0.0052801147 -0.014703527 -0.037272513 -0.07744932 0.0042271316 0.072068565 0.011190876
-0.00064291805 -0.08024585 0.03481105 -0.07850003 0.004103489 0.031631418 0.051205434 -0.021802679
00000000: 3116 a5bd 20e5 dbbb 40de 153b b87a 4dbc
00000010: 10c4 bebb 61ea b03d da9a f1bc 8a39 183d
00000020: 8a33 623d dc1f 8cbc a073 203b 7a52 aebd
00000030: 7052 a03c 9969 af3d aed6 073d b06c 5f3c
00000040: 3a98 4f3d 8324 883d 68b5 bebc ea97 0f3d
00000050: d8ee 73bc 75c7 0bbd aa12 5f3d 6e5a 603d
00000060: ba53 463d 7b1a 4fbd 02c8 90bd 307c 58bd
00000070: 38f6 203c 4faf acbd 58b6 4abd 3c5e e93c
00000080: 00f8 963b 58b0 2dbd 51c8 96bd adb5 b0bd
00000090: c0a7 473c 1652 583d 4009 9ebd c8b9 35bc
000000a0: 3f39 5cbd eaae 3b3d e6c8 7f3d ad95 9e3d
000000b0: 38c7 a7bd bfc4 8c3d 6c22 d73c 8e3a 5b3d
000000c0: 43c4 34bd 00fe 683a 6c53 93bd f21c 55bd
000000d0: 5822 f43c 82c5 373d 963b 4f3d 6d83 aebd
000000e0: 75ed 2cbd 0053 c43c 7cd6 c3bc 284b 0f3c
000000f0: f8ad cb3c c028 b63b 68e9 75bc c10d 59bd
00000100: e891 f9bc 13e0 9d3d fcc6 873c f8bd a4bd
00000110: 505a 33bc 2024 04bb 5a46 4a3d b06b e03b
00000120: efdb a8bd f721 9d3d 1264 6b3d 132e 78bd
00000130: 76da 233d 9b9a b3bd 91e0 993d 622c 2e3d
00000140: 5854 263c e995 843d 1a58 9fbd 5de9 8c3d
00000150: a04c 32bb 4f4c 943d a4ab 91bc 3e3f 413d
00000160: 4027 583c cd45 0ebd 2353 83bd 4c2f 883c
00000170: ae9c 323d 215a a93d 6a1d 5cbd 9349 adbd
00000180: 5817 a1bd 8049 da3a 32bd 433d f049 6e3c
00000190: 2efd 6e3d a740 9b3d 064e 1b3d 4409 8e3c
000001a0: d03b 3c3c fd89 abbd 70a6 b33c d764 a33d
000001b0: aef1 4f3d d0a7 c13c 631e aabd 5ec5 223d
000001c0: abdf ac3d 5793 6abd 867d 093d c0ea 403b
000001d0: f2ff 743d a1fd a73d ebeb 46bd a44d 76bd
000001e0: c85b 82bd 52da 7abd 8e10 7abd c006 1abd
000001f0: 487e 5bbc dcdd 2ebd f07e d4bc d4ee 85bc
00000200: d89f 253c 8068 54ba 1e88 a5bd 2aa5 593d
00000210: 2d89 05bd 00b6 c13a 286d abbd 0e5d 393d
00000220: dc62 e0bc 3a37 21bd e63b 9ebd 3c1d c2bc
00000230: 62fc 04bd 7c79 94bc 4ea4 3dbd 4e58 463d
00000240: f7bf 3abd 809d 0d3d 3f6b 9b3d 764d 4e3d
00000250: b41d efbc af62 aebd e059 11bb 7e5c 463d
00000260: 3cf5 b1bc fe88 f2bc e2a4 663d fb20 15bd
00000270: 2400 8fbd faaf 4a3d 2ad4 91bd 0aff 023d
00000280: e181 54bd e88b 733c 5028 2ebc 6042 353c
00000290: aeee 76bd 927f 47bd 72b8 363d ef6e 863d
000002a0: 457e 92bd 20b5 073c 3171 86bd b889 c43c
000002b0: 0c6d abbd c850 8f3c 0f73 8e3d 76e7 a5bd
000002c0: 5f06 18bd 801b 323b e046 f6bb 8b35 a5bd
000002d0: 705d 70bd fea3 123d 720c ebbc 68fc 4d3c
000002e0: 38e6 f6bc 47c3 8e3d 80d2 82bc c092 783c
000002f0: 3fcd aa3d fa04 eabc 1aa5 47bd 0867 113d
00000300: 6d50 843d c0cb aeba aed4 60bd 6070 ee3b
00000310: 7017 fe3b b38f 9b3d 3039 7bbc 4c8a 26bd
00000320: c81c c83c ee0a 3d3d 3675 493d 4420 de3c
00000330: 005b 8dba d8b7 e93c ed92 8e3d 956e a33d
00000340: 184f 8d3c 83b4 a23d b8d7 d1bc 1b40 37bd
00000350: 9ee8 293d 6e0d 2d3d 40c4 80bd ff78 aebd
00000360: 8607 323d 1ed2 193d 1525 b43d 45fe a63d
00000370: e0cb 833b c0da 953a 9205 423d b512 58bd
00000380: e044 09bd fe81 183d a463 c4bc 3118 9d3d
00000390: 70dc bcbb c632 2f3d 956c 1abd 6278 f5bc
000003a0: 82de 3d3d 39e2 ae3d 8b05 b0bd 40fa 213c
000003b0: a088 1a3c 3e1d 68bd b258 59bd 0aa9 9dbd
000003c0: 598a 7dbd d004 ad3b 10e7 70bc 10ab 18bd
000003d0: c09d 9ebd c083 8a3b af98 933d f059 373c
000003e0: 8089 28ba f057 a4bd 0896 0e3d a0c4 a0bd
000003f0: 9076 863b f28f 013d cabc 513d 889b b2bc

temporal_emb_converter.bias_ih_l1 f4 [512]
-0.027900971 0.0433475 0.0056867898 0.03029918 -0.054499857 0.002212517 -0.02002693 0.015065089
-0.017505385 0.005763054 -0.03287258 -0.018747464 0.08307444 -0.040942363 -0.05319383 -0.07880943
0.073107906 -0.0708604 0.02177643 -0.04052653 0.08795626 0.062694825 0.024823725 -0.053216275
-0.05110441 0.064985774 0.07084372 -0.07737525 -0.062980816 -0.05444223 0.024083562 0.0649469
-0.023084685 0.0877934 -0.06362365 0.03298252 0.0051745772 -0.033406317 -0.0556753 -0.0030828342
-0.0043088123 0.033716254 -0.077950805 0.088351615 -0.06121105 -0.02614231 0.072239734 0.012425683
-0.0731125 0.07105764 -0.08672079 0.03435748 -0.04926472 -0.06745112 -0.0605221 0.046095036
0.03064397 -0.05164542 0.06255003 -0.006533742 0.037880592 -0.07408648 0.0754134 0.05318535
0.048166163 -0.066907585 0.068284474 0.032666557 -0.030361537 -0.023767494 -0.034638513 -0.064986624
-0.07181385 -0.08665312 -0.004451789 0.08366079 -0.03987645 0.0069366023 -0.0645065 0.06771935
0.013662681 0.004677929 -0.08339661 0.0217072 0.07108512 -0.037139636 -0.050260358 -0.012556359
0.0060579777 0.03839708 -0.040888764 -0.08592243 -0.06826754 0.0011936128 -0.039439533 0.038176395
0.04642778 -0.033390705 0.020150207 0.023116253 -0.076631084 0.056919537 0.059271254 0.060661398
0.036593966 -0.048871007 -0.008872047 0.06364601 0.05873444 -0.03139073 0.010855615 0.06836865
-0.03568322 -0.049540415 -0.01178316 -0.021337263 -0.042719465 0.046748303 0.011213347 -0.0028090477
-0.035010207 -0.04787023 0.028089032 0.018367447 0.08034637 -0.07075982 0.056613527 0.03420887
-0.08446112 -0.008037128 0.021862358 -0.05892823 0.014497906 -0.061015043 0.08584385 -0.027878508
0.0046573505 -0.032877102 0.05665811 -0.01323691 0.004784882 0.07006582 0.048288785 0.07887841
-0.08788771 -0.05615764 0.05565002 -0.078210756 0.05714173 -0.0426905 0.023667626 -0.034452192
0.03431783 -0.061508656 0.029268771 0.01820571 0.08532361 -0.016391106 -0.004297167 0.08730208
-0.051562265 -0.055583484 0.08744361 -0.048209596 0.078604646 -0.07397607 -0.05348416 0.07672361
0.005421646 0.077791475 -0.002594009 0.070102505 -0.07335073 0.04652705 0.0031951666 -0.05182392
-0.013487741 -0.057772443 0.06415529 -0.073507085 0.004650019 0.05410456 0.06645333 -0.075436376
-0.03807167 0.044261508 -0.074075826 0.05342994 -0.08110085 0.033428855 0.021409132 -0.052703485
-0.058793493 -0.02731654 0.06368897 0.04086683 0.042337455 0.055557318 -0.0855432 -0.043502606
-0.028687485 -0.0174542 -0.08283058 0.016957827 -0.040127657 -0.023369372 -0.05659558 0.017028973
-0.009263605 -0.05622871 0.08310855 -0.053119674 -0.06266293 0.041836582 -0.05966293 0.043256186
-0.029066026 0.04912726 -0.029279005 0.055505656 0.03119266 0.06197787 -0.02668026 0.02950275
0.0858869 -0.0094444975 0.040871106 -0.053471167 -0.035103783 0.055721454 0.013573773 -0.038983032
0.032748245 -0.026653752 -0.03469949 -0.019408792 0.083958514 0.039533876 -0.0625031 0.051822327
0.07090331 -0.0064228848 0.06131441 -0.045843042 -0.02749987 -0.00342834 0.05397939 0.05530376
0.0178608 0.06770065 0.022928804 0.05114334 -0.01987005 -0.08813966 0.071560614 0.022434153
00000000: 9490 e4bc 268d 313d 4058 ba3b fc35 f83c
00000010: 3e3b 5fbd e0ff 103b 840f a4bc 90d3 763c
00000020: 7467 8fbc 00d8 bc3b 66a5 06bd 4894 99bc
00000030: ef22 aa3d 2eb3 27bd c6e1 59bd d766 a1bd
00000040: 99b9 953d 421f 91bd 7c64 b23c 26ff 25bd
00000050: 6922 b43d 2566 803d 205b cb3c 4ff9 59bd
00000060: dc52 51bd 4317 853d 8316 913d ea76 9ebd
00000070: 16fc 80bd d1fe 5ebd e44a c53c e102 853d
00000080: 181c bdbc 07cd b33d 1e4d 82bd ae18 073d
00000090: 808f a93b 10d5 08bd c90b 64bd 6009 4abb
000000a0: f030 8dbb 0e1a 0a3d aca4 9fbd b1f1 b43d
000000b0: 70b8 7abd 6628 d6bc 6df2 933d 1895 4b3c
000000c0: 02bc 95bd ab86 913d ab9a b1bd 6eba 0c3d
000000d0: cec9 49bd d023 8abd 06e6 77bd 26ce 3c3d
000000e0: 1009 fb3c 268a 53bd 3b1a 803d 0019 d6bb
000000f0: ae28 1b3d a7ba 97bd 5772 9a3d e2d8 593d
00000100: e249 453d d806 89bd bbd8 8b3d 5ecd 053d
00000110: c2b8 f8bc 0cb4 c2bc 1de1 0dbd b517 85bd
00000120: 2413 93bd 3177 b1bd 50e0 91bb 5956 ab3d
00000130: 7d55 23bd 704c e33b fc1b 84bd 71b0 8a3d
00000140: 70d9 5f3c 5049 993b d8cb aabd 4cd3 b13c
00000150: 1395 913d bb1f 18bd cedd 4dbd 30b9 4dbc
00000160: 0082 c63b 4246 1d3d fa7a 27bd 19f8 afbd
00000170: dacf 8bbd 0073 9c3a 598b 21bd da5e 1c3d
00000180: 0e2b 3e3d b1c4 08bd 0c12 a53c 4c5e bd3c
00000190: c2f0 9cbd 7624 693d 6ac6 723d 1678 783d
000001a0: 8ee3 153d f72c 48bd 105c 11bc d758 823d
000001b0: 8693 703d 9193 00bd c0db 313c dd04 8c3d
000001c0: 9128 12bd e4ea 4abd 280e 41bc 7ccb aebc
000001d0: 9bfa 2ebd 267b 3f3d 30b8 373c 0018 38bb
000001e0: dd66 0fbd 9313 44bd f81a e63c 5477 963c
000001f0: a38c a43d 86ea 90bd 96e3 673d 9a1e 0c3d
00000200: f4f9 acbd 28ae 03bc b018 b33c ba5e 71bd
00000210: a088 6d3c e9ea 79bd e7ce af3d 7861 e4bc
00000220: b09c 983b 24aa 06bd 5612 683d a0df 58bc
00000230: 80ca 9c3b ab7e 8f3d 76ca 453d 018b a13d
00000240: 79fe b3bd 8e05 66bd 46f1 633d f62c a0bd
00000250: 720d 6a3d 3cdc 2ebd 9ce2 c13c be1d 0dbd
00000260: da90 0c3d 80f0 7bbd 10c5 ef3c 2424 953c
00000270: 25be ae3d a446 86bc 40cf 8cbb 6fcb b23d
00000280: f432 53bd 82ab 63bd a315 b33d 6d77 45bd
00000290: 79fb a03d c480 97bd 3512 5bbd 4521 9d3d
000002a0: 10a8 b13b 2351 9f3d 4000 2abb e791 8f3d
000002b0: e838 96bd 2693 3e3d 0066 513b 5245 54bd
000002c0: b0fb 5cbc cca2 6cbd d963 833d e28a 96bd
000002d0: 305f 983b be9c 5d3d af18 883d 637e 9abd
000002e0: 0af1 1bbd 8e4b 353d 11b5 97bd 5ad9 5a3d
000002f0: 3418 a6bd b2ec 083d 3462 af3c 9cdf 57bd
00000300: 72d1 70bd f0c6 dfbc 5d6f 823d fa63 273d
00000310: 0a6a 2d3d 1290 633d 4631 afbd ca2f 32bd
00000320: 0402 ebbc 1cfc 8ebc 14a3 a9bd 24eb 8a3c
00000330: e65c 24bd 2071 bfbc c4d0 67bd 5880 8b3c
00000340: 60c6 17bc 1350 66bd d134 aa3d 0494 59bd
00000350: 6c55 80bd d65c 2b3d 1e61 74bd 662d 313d
00000360: e01b eebc aa39 493d 86da efbc e659 633d
00000370: c087 ff3c 82dc 7d3d 9090 dabc c0af f13c
00000380: 79e5 af3d 18bd 1abc 7668 273d 9504 5bbd
00000390: fcc8 0fbd 2e3c 643d 8864 5e3c acac 1fbd
000003a0: 0623 063d f858 dabc 0d21 0ebd 30ff 9ebc
000003b0: 71f2 ab3d 46ee 213d a001 80bd a643 543d
000003c0: c135 913d 1077 d2bb d224 7b3d eac5 3bbd
000003d0: 6847 e1bc 00ae 60bb 7e19 5d3d 3286 623d
000003e0: d050 923c a3a6 8a3d 30d5 bb3c ae7b 513d
000003f0: 84c6 a2bc 9182 b4bd 5f8e 923d d4c7 b73c
